P5/h20-bs64-transformer/decoder.pt (torch, 64771 bytes, 45 tensors)

weight f4 [29, 20]
000000 d5 93 47 bd 5f cb 1e bf 2e 59 e6 3d 2d 94 ae bf
       -0.048724968 -0.6202907 0.112474784 -1.363897
000010 c5 14 3a be 6e d7 c8 3e 41 2d 95 3e d9 b8 94 3f
       -0.18171985 0.3922686 0.29136088 1.1618911
000020 81 7d 39 bf 7c bb c8 bd 42 19 a2 bf f7 a7 04 be
       -0.7245713 -0.09801385 -1.2663958 -0.12954699
000030 57 06 bc be 01 b2 16 bf f4 62 30 3f 89 02 d4 3e
       -0.36723587 -0.5886536 0.6890099 0.41408184
000040 23 b9 a3 3e 89 06 80 bf 02 41 fb 3f fb 39 3f bf
       0.31977186 -1.0001994 1.9629214 -0.74697846
000050 8f 9a 8a be 47 8d 1b bf f6 fd 11 be 94 b8 05 3f
       -0.27071044 -0.6076245 -0.14257035 0.5223477
000060 18 3e 45 3f b3 06 68 3f 21 0a 38 3f 2b 4c 85 3f
       0.7704787 0.9063522 0.71890455 1.041387
000070 5c aa 3e 3f b1 27 50 3e 37 0f 20 c0 e0 7d 09 be
       0.744787 0.20327641 -2.5009286 -0.13426924
000080 c3 fe 06 bd b1 ab 40 3f e2 b0 89 bf 70 77 95 3e
       -0.032957803 0.7526198 -1.0757105 0.29192686
000090 61 61 52 bd 28 2f 72 3f 71 85 bd bf 3b cf 78 bf
       -0.0513624 0.94603205 -1.4806348 -0.9719121
0000a0 c4 40 d3 be 69 9d 8b bf 4e 64 a3 3c 3a ab 96 3e
       -0.4126035 -1.0907413 0.01994529 0.2942751
0000b0 d6 a6 cc bf a2 f4 b0 bf f7 a9 fb be 15 84 af bd
       -1.5988414 -1.3824656 -0.4915311 -0.085701145
0000c0 82 1b f8 3d b9 9e ba 3f 55 c6 d2 bd 65 15 d3 3f
       0.12114622 1.4579688 -0.10291735 1.6490904
0000d0 c2 38 ed 3f 5b 89 89 bd de bd 24 3f 6c 6e 4f 3e
       1.8532946 -0.067156516 0.64352214 0.20256966
0000e0 6e 50 9d 3f a9 dc 76 3f 03 e5 3e 3f 24 48 00 3d
       1.229017 0.9643045 0.74568194 0.0313188
0000f0 62 e5 eb be ad 5b 9e bf 90 d9 c7 3e ed 2c dd 3e
       -0.46073443 -1.2371727 0.39033175 0.43198338
000100 31 76 92 bf c9 43 c0 bd f4 69 e7 bd 4d ec 8c bf
       -1.1442319 -0.09387929 -0.11299506 -1.1009613
000110 1d 95 49 bf 7c 7f 0a 3f 09 a7 df 3f c2 a2 06 3f
       -0.78743154 0.54100776 1.747285 0.525921
000120 de e9 93 bf a4 6e 29 3f c0 fe 19 3e bc e1 ba 3b
       -1.1555746 0.6618445 0.15038586 0.005703179
000130 c8 8c fa 3c 7d 1f f7 be dd d7 98 be 72 91 17 bf
       0.030584708 -0.4826621 -0.2985219 -0.59206307
000140 d9 49 43 bf 0d a4 01 40 cf d8 16 bf 09 6a c5 3f
       -0.7628456 2.0256379 -0.58924574 1.5422984
000150 ce 74 2a be e1 59 e8 3e c0 54 90 bf 78 b4 1e 3f
       -0.1664612 0.45381072 -1.1275864 0.61994123
000160 c3 5a e6 3e 53 97 b2 3e 32 83 26 bf 3f bf 59 3e
       0.4499112 0.34881076 -0.6504394 0.21264361
000170 ef cb 8e be e1 df 80 bf 84 95 63 3e 6e 60 85 be
       -0.27889964 -1.0068322 0.22225004 -0.26050133
000180 e1 39 b0 bf dd 9c d4 bd 87 f3 01 bf 58 58 51 bf
       -1.3767663 -0.10381482 -0.5076222 -0.81775427
000190 65 0a d4 3e 8b 93 3e be b6 f7 85 3e bc 7f 49 3d
       0.4141418 -0.1861097 0.2616555 0.049194083
0001a0 0e 3e 9b 3e 45 93 d4 3c 29 a6 c1 3e b9 99 86 be
       0.3032078 0.02594913 0.37822083 -0.26289156
0001b0 28 a1 39 3f 07 45 85 3f 1f a3 54 bf fe d7 87 be
       0.7251153 1.041169 -0.83061403 -0.26531976
0001c0 17 d4 76 3f 7e 3b 5c 3f f0 c6 1c 3e 58 cc 9c bf
       0.96417373 0.8602828 0.15310264 -1.2249861
0001d0 92 4d 6f be d7 ed d3 bf c9 1c 1d bf 4f 93 4b bf
       -0.23369434 -1.6556958 -0.6137205 -0.7952165
0001e0 35 cc 96 bf 79 47 7e bf 6b 8f 59 3d aa 9b 79 bf
       -1.1781069 -0.9932781 0.05311529 -0.9750315
0001f0 85 cf 33 bf b8 2d 24 3f 83 0f a1 3e 8c 1c a2 bf
       -0.70238525 0.6413226 0.31457147 -1.2664962
000200 d4 54 71 3f 30 40 07 3f 82 c7 c0 3f b6 34 63 3f
       0.9427006 0.5283232 1.5060885 0.88752306
000210 38 9f 8d 3f ef f6 89 3d fd 8e 74 bd fe 61 0c 3d
       1.1064215 0.06736552 -0.059706677 0.03427314
000220 d8 8c ca 3f 7b 04 8c be c3 94 02 3f 12 f5 e6 3e
       1.5824232 -0.27347168 0.5100824 0.4510885
000230 c8 14 f6 3e 48 8f 9c 3e 17 53 f7 3e 5d b2 a3 bd
       0.4806273 0.30578065 0.4830558 -0.079930045
000240 ef 4e 19 3d bd 79 92 3f 54 c5 04 bf 76 23 f8 bc
       0.037428793 1.1443402 -0.518636 -0.030290347
000250 d6 74 e9 3f 8f f8 cf be c1 d2 9e 3d 1b 26 da 3f
       1.823878 -0.40619323 0.07755042 1.7042879
000260 40 c1 bf be 13 0a 0f bf 35 52 61 be e8 b5 88 3f
       -0.37452126 -0.5587475 -0.22004016 1.0680513
000270 fb 51 58 bf ea 27 64 bd c2 44 6d bf 82 fd 54 3f
       -0.8450009 -0.055702128 -0.9268304 0.8319932
000280 c6 1d 90 3e a5 7d b3 3f 77 bc 66 bf 8c 5b a4 3e
       0.28147715 1.4022719 -0.90131325 0.32101095
000290 5c 22 31 bf 1a 48 fb be 88 75 e5 3e 19 c4 43 3f
       -0.69193053 -0.49078447 0.44816232 0.76471096
0002a0 7c d2 dc bf 6e e0 54 3f b7 e5 ef 3e e4 f2 8f 3e
       -1.7251735 0.8315495 0.46854946 0.28114998
0002b0 5b 44 35 bf d7 f2 f6 bd ce e6 15 3f 12 92 d5 be
       -0.7080743 -0.12058037 0.58555305 -0.41713005
0002c0 d8 33 47 bf 43 9f 28 be 55 b5 ba bf 69 3d 0d bf
       -0.7781348 -0.16467004 -1.4586588 -0.5517183
0002d0 2b 95 6a 3f 45 58 2f bf 01 bb 0f 3f dd 01 32 bf
       0.9163386 -0.68494064 0.5614472 -0.69534093
0002e0 ba 71 58 3f 93 b0 6f be 21 7b 29 3f 2d 0d 52 3e
       0.8454853 -0.23407201 0.66203505 0.20512839
0002f0 91 51 97 bf 9e e6 53 bf c5 ed 31 be 1c e8 8c 3f
       -1.1821767 -0.8277377 -0.17375858 1.1008334
000300 2c ea 3f 3d c4 38 e3 3e ca 9c c4 bf 19 1f fc 3d
       0.046854183 0.44379246 -1.5360348 0.12310619
000310 c3 0b d0 3e e5 b3 8a be 17 a2 47 bf 7b 85 e6 bf
       0.40633973 -0.27090374 -0.77981704 -1.8009485
000320 dd dc a1 bf 17 8b eb 3e 54 9d 53 bd 6b 45 cd be
       -1.2645527 0.46004555 -0.05166371 -0.40092024
000330 e5 62 82 3c 22 dd da be 73 dc 63 be 19 58 c8 3f
       0.015916297 -0.42746836 -0.22252063 1.5651885
000340 c7 96 b2 3e f5 06 8c 3d aa 0f bf 3f 00 6f 31 3f
       0.3488066 0.068372644 1.4926655 0.6931
000350 c9 14 84 be e1 a0 62 3d 6b 55 8c 3f 36 80 01 bf
       -0.25797108 0.055329207 1.0963567 -0.5058626
000360 ce ff 84 3f 41 4c 1b bf bb 5b 09 be 47 cf 15 be
       1.0390565 -0.6066323 -0.13413899 -0.14629851
000370 8a dc 4b 3f c2 cd 1c 3f 34 b3 6d 3f 1f 82 18 bf
       0.7963339 0.6125146 0.9285157 -0.5957355
000380 ac 9c 1c bf 03 4d 8c bd 03 81 03 3f cd f4 b4 3e
       -0.6117656 -0.06850626 0.5136873 0.35343018
000390 ca b2 9f be 66 68 26 bf c3 13 0c 40 c7 86 ce 3e
       -0.31191093 -0.6500305 2.1887062 0.40337202
0003a0 fd 94 21 bf 66 0a 1e 3e b1 c9 2e bf 52 48 9e 3f
       -0.63117963 0.15433654 -0.68276507 1.236582
0003b0 56 e0 77 3d 47 97 b1 3d eb 1e 3d bf 5a c6 39 bf
       0.060516678 0.08671432 -0.738753 -0.72568285
0003c0 25 55 48 bf 4c 23 f2 3e 22 12 04 bf f9 bf a8 bf
       -0.7825492 0.47292554 -0.5159017 -1.3183585
0003d0 f3 32 7e 3e c5 5e b0 bd fa e3 2c bf 0d 46 f5 bb
       0.24824123 -0.08611826 -0.67535365 -0.0074851573
0003e0 14 6a 8f bf ce a5 b2 3c 4a fe 98 3f 1d d8 06 3f
       -1.1204247 0.021807577 1.1952603 0.5267351
0003f0 68 86 a3 3f 72 a2 5c bf a8 f5 6c be f1 de 33 be
       1.2775393 -0.8618537 -0.23140585 -0.17565514

weight f4 [20, 20]
000000 29 cb fd bd 4b 27 93 bd e1 aa 98 3d 69 2a 84 bd
       -0.12392265 -0.07185229 0.074544676 -0.064534016
000010 af 4b 58 3c 48 8c da 3d 9d e2 80 bd 98 ad 18 3d
       0.013201638 0.10671288 -0.06293223 0.037274927
000020 4b f3 4e bd e6 ee e7 3d 3b 40 c1 bb 78 74 f3 3d
       -0.05052499 0.11324863 -0.0058975494 0.11887449
000030 2d fb 69 3c e4 d8 83 3c cb 57 17 3e d5 a1 0a bd
       0.014281076 0.016094632 0.14779584 -0.03384574
000040 f2 d2 db bd 60 43 5e bd 0b 79 fe bd ac d8 c5 bd
       -0.10733594 -0.054263473 -0.12425431 -0.096604675
000050 2e a3 99 bd a6 83 46 be 89 18 2b be 10 e5 92 bd
       -0.07501827 -0.19386157 -0.16708578 -0.071725965
000060 3a cf 0a 3e ea 92 66 be ed 49 2e 3e 12 1f 10 3d
       0.13555613 -0.22516981 0.17020388 0.03518588
000070 75 71 f0 bc e2 6a f1 3d b8 07 7a be ec 27 4b bd
       -0.029350976 0.117879644 -0.24417007 -0.04959862
000080 bb 52 83 bd 4e eb e4 3c 39 14 20 be 4a 17 a3 3c
       -0.06412264 0.027944233 -0.15632714 0.019908566
000090 7b f1 35 bd e8 7c 89 3e 23 bd 0d 3e 98 49 ea 3d
       -0.044419747 0.26853108 0.13841681 0.11439818
0000a0 a5 b9 7f be 18 25 54 bd b2 60 50 bb 1c 2d 5d bd
       -0.24973162 -0.051793188 -0.0031795916 -0.053998098
0000b0 57 ad ea bd e6 2c db 3d 93 15 fb bd 0d 62 ef bb
       -0.11458843 0.10701923 -0.12259974 -0.0073053897
0000c0 2d ba cf bd 1a c7 8f bd dd c8 87 bd 7c 89 59 3e
       -0.10142932 -0.070203975 -0.066301085 0.21243852
0000d0 13 2e a7 bd ab c0 bc 3d ba 18 8e 3d 02 d0 00 be
       -0.08163085 0.09216436 0.0693831 -0.12579349
0000e0 5b 2e 3a bd b9 da 75 bd 87 e6 b9 bd 0e f6 38 be
       -0.045454364 -0.060023043 -0.09077173 -0.18062612
0000f0 66 7e eb ba 6b 46 27 3d f8 27 bf 3d b9 ef 42 be
       -0.0017966747 0.04083864 0.09333795 -0.1903676
000100 85 1f 45 be bf d2 07 3e 0f dd f5 bd 82 2c 22 3e
       -0.19250305 0.13263987 -0.12005054 0.15837291
000110 a8 cb 92 3d e6 33 0e 3e fe 1e 82 3d d2 ba a6 bd
       0.071677506 0.13886985 0.063535675 -0.08141102
000120 07 0e 12 3e 07 b6 06 3e 2d fc 86 bb 0a ff 12 3e
       0.14263164 0.13155375 -0.004119417 0.14355102
000130 00 d1 c0 3d b1 6e 8b bd 63 e0 1f be e7 fb 3d be
       0.094148636 -0.06808222 -0.1561294 -0.18553124
000140 5d f4 0d be 05 f5 dc bc 8f a0 dd 3b 16 f6 b8 3d
       -0.13862748 -0.026972303 0.006763525 0.09031312
000150 e9 02 8e bc 1a 86 49 be 2b 96 55 3d cb 9a a3 3d
       -0.017335372 -0.19680062 0.052145164 0.07988509
000160 2f 29 03 3e 8d 41 98 bd 14 0d 5e 3d e3 27 96 3d
       0.12808679 -0.07434378 0.05421169 0.073318265
000170 d0 2e 52 bd 81 4e 25 be 65 ec 65 3d 8b 06 ad 3c
       -0.051314175 -0.16143228 0.056133647 0.021121284
000180 17 70 30 3d 27 80 b6 bd 6a 20 5f bd e1 4b 4d be
       0.043075647 -0.08911162 -0.05447427 -0.20048477
000190 97 31 31 3e 46 e6 3b bd 8e 56 13 bd c5 9b 70 3d
       0.17304073 -0.045873903 -0.035971217 0.058742303
0001a0 0b 0a a7 bc 47 a9 4c 3e 3c 39 f3 3c d9 47 de 3c
       -0.020390531 0.19986449 0.029690377 0.027133869
0001b0 9f 2b 1d be d2 cf df 3c 71 ee 0a 3d b8 54 52 be
       -0.15348671 0.027320776 0.0339188 -0.2054013
0001c0 81 f3 d5 3d 2e 80 85 3c 54 bd 72 bd 39 cb ee bc
       0.10446835 0.016296472 -0.05926259 -0.029149638
0001d0 a1 f1 62 3c 66 4f fb 3d 66 23 88 3c 0f c6 33 3e
       0.013851554 0.122710034 0.016618442 0.17556022
0001e0 33 e7 6b be 76 b9 41 bd 73 ff 29 3e ef 5f be bd
       -0.23037414 -0.04729601 0.16601352 -0.09295642
0001f0 59 2b f0 3c c6 2e 94 3c 49 28 f3 3d 78 8b 99 bd
       0.029317545 0.01808871 0.11872918 -0.07497305
000200 d2 0c 0b 3d bc f3 1d 3b c6 56 a1 bb 0b 4c 8f bd
       0.033947773 0.0024101576 -0.0049236743 -0.06996926
000210 34 ef c9 3d 20 0e 1e bd 7d 16 cf 3d 45 47 3f 3d
       0.098600775 -0.03858769 0.10111711 0.046698827
000220 2c 1b 30 be 13 27 6e bd 65 0c 86 bd fb c2 1b bd
       -0.17197865 -0.058142733 -0.06545333 -0.038027745
000230 ec a9 cf 3e 88 97 84 3e 86 76 34 be ae a5 83 bb
       0.40559328 0.2589686 -0.17623338 -0.0040175533
000240 a9 fa d6 3d b3 e9 1e be d0 34 8a 3e 9a 90 97 be
       0.104970284 -0.15518837 0.26993418 -0.2960251
000250 e3 a9 d9 3c 93 71 9a be f0 67 c7 bd 69 cf 3f be
       0.026570266 -0.30164775 -0.097366214 -0.18731464
000260 85 db 49 be bc b4 86 bd 46 db 5a bb b6 b1 4a be
       -0.19712646 -0.06577441 -0.0033394857 -0.19794354
000270 38 a4 98 3e 5c 59 d7 bc 4a 6d 9b 3e 39 0d b2 3e
       0.2981279 -0.026287727 0.30356818 0.34775713
000280 2a 56 8a bd 41 32 45 bd eb a2 92 bd 1f 50 92 3d
       -0.06754716 -0.04814363 -0.071599804 0.07144188
000290 f1 d8 63 3d 17 71 ef b9 38 ee 4f 3e 6a 2b a7 3c
       0.055626813 -0.0004566989 0.20305717 0.020406444
0002a0 b6 21 59 bb 44 33 87 3d 24 72 99 ba ec 8a e9 3d
       -0.0033131666 0.06601575 -0.001170699 0.1140345
0002b0 f6 35 47 bd c9 78 df bd e9 47 1d be cd 30 f7 bd
       -0.048635446 -0.1091171 -0.15359463 -0.12069855
0002c0 2f 98 41 be 11 37 d4 bc 17 1e 07 3e 64 51 03 3d
       -0.1890571 -0.025905164 0.13195072 0.032060042
0002d0 41 25 20 bd dc 0b 97 3b 5a 00 46 3d b3 0f ae 3c
       -0.039098028 0.004609568 0.04834018 0.02124772
0002e0 ba a7 11 bd 9f 89 2b 3d d5 79 86 bd 8b fa e5 b9
       -0.035560347 0.041879293 -0.06566206 -0.00043864953
0002f0 6f 42 81 bd d7 24 b2 bb 0d f5 77 bd 89 5a 74 3d
       -0.06311499 -0.0054365206 -0.060536433 0.059656654
000300 c8 cf d4 3c 2f 21 30 3c c6 6b 1e 3d 06 1c 3f bc
       0.025977984 0.010750099 0.038677 -0.011664396
000310 e9 6c 97 3d 55 bd 5c bd 9d ed 02 3c 7b e8 2a bd
       0.0739382 -0.0538915 0.007991222 -0.041725617
000320 78 ad 95 3e a4 15 14 3e c8 b5 f5 be ed b0 72 3e
       0.2923391 0.1446138 -0.4799025 0.23700304
000330 b7 9c 3f bc 28 51 41 be 76 3f 50 3e 42 d9 54 3e
       -0.011695079 -0.18878615 0.20336708 0.20786002
000340 1e ca 89 bd 08 57 5a be fc 37 3a 3c 00 b3 a4 be
       -0.06728004 -0.21322262 0.011365887 -0.32167816
000350 21 27 91 bd 1f 37 33 3e c2 ae 9b bd a0 e5 a4 3e
       -0.07087541 0.17501496 -0.07601692 0.3220644
000360 8c 8d ba 3e 25 7d c3 3d 8c e9 78 3d 28 b9 fd 3e
       0.36436117 0.09545354 0.060769603 0.49555326
000370 01 35 cc bc f7 2d bd 3c a7 ab 42 be da 73 cc 3d
       -0.024927618 0.023093207 -0.19010793 0.099830344
000380 23 f8 29 3d 63 f0 15 be 9f e3 0a 3c a3 0d 37 bc
       0.041496407 -0.14642482 0.008477121 -0.011172685
000390 63 f5 38 3c 47 00 a4 bd 73 00 3c bd 45 9c e2 bc
       0.0112889735 -0.080078654 -0.045898866 -0.027662406
0003a0 4f f8 07 ba 3c ba 52 bd df 1a 38 3d 5d a4 5b bd
       -0.0005186842 -0.05144714 0.0449475 -0.053623546
0003b0 ce 77 42 3d e3 0f b8 3d da 9d 14 3d 8d c4 0b 3d
       0.047477536 0.08987405 0.03628335 0.034122992
0003c0 5b f5 f3 bd 43 5f bf bd a9 15 0f 3d 52 48 55 bd
       -0.11912032 -0.093443416 0.034932766 -0.052070923
0003d0 41 f8 b4 3d 5a 04 83 39 cc cf 20 be e8 a6 e6 bc
       0.08836413 0.0002498951 -0.15704268 -0.028155759
0003e0 05 45 0c bd cf 32 68 bd 98 f7 e0 3d a7 a5 94 be
       -0.03424551 -0.05668908 0.10984725 -0.29032633
0003f0 58 f9 e9 3c 9a b4 c0 3d 38 58 fa 3d 81 d0 de 3d
       0.02856128 0.09409447 0.12223858 0.10879613

bias f4 [20]
000000 0b 2a 6b be fb f6 62 be 4c c4 73 be 16 e3 45 be
       -0.22965257 -0.22164528 -0.2380535 -0.19324908
000010 e6 2d 79 bd 48 7e 73 3e 77 fd 06 be 06 36 99 be
       -0.060834788 0.23778641 -0.13182627 -0.2992403
000020 a1 ae b5 3c c3 10 ae 3c 8c af 92 be 8f fd 24 3e
       0.022177996 0.021248227 -0.28649557 0.1611235
000030 77 30 b6 3d b8 4e 88 3c f8 bf 50 bc 64 37 28 bd
       0.08895963 0.016639099 -0.012741081 -0.04106845
000040 19 fc 9a bc b0 26 d6 3c 12 95 02 bd 01 9f 37 3e
       -0.018919038 0.026141495 -0.031880446 0.17931749

weight f4 [20, 20]
000000 59 39 80 bd 91 ba 33 3d db 38 e5 bd 69 a5 cc 3d
       -0.06260938 0.043879095 -0.11192485 0.09992487
000010 88 80 d2 bd fa 96 e1 bd 44 46 37 3e 1b 48 30 3e
       -0.10278422 -0.110151246 0.17897898 0.17215006
000020 0c 79 e5 bc be 25 b4 bd 18 03 87 3d 93 b9 30 bc
       -0.028011821 -0.08796261 0.06592387 -0.010786432
000030 16 79 1d 3e 5b e8 a5 3d d8 17 f4 bb 2a 5b 96 3d
       0.15378222 0.08100959 -0.0074491315 0.07341607
000040 3d fd b3 bd fa ff b9 bd 79 ef d0 3b 0b c4 ec 3d
       -0.08788536 -0.09082027 0.0063762036 0.1156083
000050 60 e8 56 be 62 f0 a3 3d 1a 73 f6 3d d9 3c 84 bb
       -0.20987082 0.08004834 0.12033673 -0.004035574
000060 33 dc 6b be fa a6 7f bd af 58 55 be dd 88 59 3d
       -0.23033218 -0.0624151 -0.20834611 0.05310904
000070 ac 94 20 be bd db 8a 3d 81 47 12 be f6 5b 54 3e
       -0.15681714 0.06780193 -0.14285089 0.20738205
000080 e8 14 a9 bc 29 66 5d bd e9 6c 88 bb c7 31 d2 bd
       -0.020639852 -0.054052506 -0.0041633737 -0.102634005
000090 a3 60 7f 3e 18 bb 12 be 72 34 84 bd ab 0c e5 3d
       0.24939208 -0.14329183 -0.06455316 0.11184057
0000a0 4c 91 d3 3c 52 8b 47 3c 48 9a da 3d 2b 55 50 3e
       0.025826119 0.012179213 0.10673958 0.20344989
0000b0 f4 51 1d be e7 1a 92 3e 8e ca da 3d 5c 4e 48 be
       -0.15363294 0.2853615 0.106831655 -0.19561142
0000c0 5f 9c 69 bd f8 35 83 3c da 27 d6 bd bc 3b 8a 3e
       -0.057033893 0.016016945 -0.1045682 0.269987
0000d0 8a 95 77 3e 20 0e 12 bd eb a6 8b 3d 0b 2f d5 bd
       0.24178138 -0.035658002 0.068189465 -0.10409363
0000e0 0b a0 d7 bc aa 0c 2e bd 39 a6 a5 3d 14 02 ef 3d
       -0.026321432 -0.042492546 0.08088345 0.11670318
0000f0 e7 39 81 bd c2 5f 04 3e fb d3 95 3d df 55 82 bc
       -0.06309872 0.12927154 0.07315823 -0.015910087
000100 dd 3b 7a bc 94 c6 6d be f3 57 9e 3d e6 67 b3 bd
       -0.015273062 -0.23220283 0.07731619 -0.087600514
000110 07 92 13 3e ff 0b f7 bd 0f 29 93 bb cf 66 54 be
       0.14411174 -0.12062835 -0.0044909786 -0.20742343
000120 62 5a 10 3e 99 2e 6d bd c5 f7 bd bb 5c 2d bd bc
       0.14096978 -0.057905767 -0.0057973587 -0.023092918
000130 5c a5 82 3d e8 4f cb bd 23 7e f5 3c 7c 27 ea bc
       0.06379196 -0.0992735 0.029967373 -0.02858328
000140 42 25 82 3c 21 42 d4 bd c2 a7 cd 3d 34 b1 03 3d
       0.015886907 -0.103641756 0.10041763 0.032151416
000150 f5 73 c7 3d c0 3f 5f 3e 97 84 72 be 9d 63 6a 3e
       0.09738914 0.21801662 -0.23683392 0.22889562
000160 6c 6b 04 bd 48 d9 86 3e f2 6c de 3d 4b 0f e9 bd
       -0.032329008 0.26337647 0.108606234 -0.1137987
000170 f7 a3 b8 bd 46 d6 15 bd af 33 d0 3d b8 99 84 3d
       -0.09015649 -0.0365813 0.10166108 0.06474632
000180 96 fd 41 3d 0f a4 a1 bd 1d 21 e1 bd 00 31 b7 3d
       0.04736098 -0.0789262 -0.10992644 0.08944893
000190 de 5c 1a 3d 01 a1 36 3e 0a 5a 31 be b1 9e 2e be
       0.03768622 0.17834856 -0.17319503 -0.17052723
0001a0 c9 93 36 bd 64 9c 89 be b5 98 b3 bd 73 0e 7c 3d
       -0.044574533 -0.2687713 -0.08769361 0.061537217
0001b0 e5 cc 14 3c 68 50 38 bd 4b 39 a7 bc d8 0c 05 3e
       0.009082054 -0.044998556 -0.020413062 0.12993181
0001c0 95 de cb bd 20 d2 2d 3e 94 86 f0 bd 90 fb 15 be
       -0.099545635 0.16974688 -0.11744419 -0.14646745
0001d0 df 5f 8e 3d 2f 7f b7 bd 5d 78 37 3d 06 d6 03 3d
       0.0695188 -0.08959805 0.04479252 0.03218653
0001e0 e2 0f 6f 3d c4 92 2c be e5 74 01 be 44 27 ad bd
       0.058364756 -0.16852862 -0.12642248 -0.08454755
0001f0 b8 d1 df bd 57 22 e5 bd aa c4 8a 3d 7d 9f 8c 3e
       -0.109286726 -0.111881904 0.06775792 0.2746543
000200 76 55 41 ba 16 75 8c bd 16 e9 3f 3e d1 9f 87 be
       -0.00073751004 -0.0685827 0.18741259 -0.26489118
000210 9c fc 04 bd a2 45 e3 bb a6 ac 3d 3d a3 f9 bc bd
       -0.03246747 -0.006935791 0.04630723 -0.09227302
000220 10 73 d5 bd c6 8a a2 bd 25 ee 04 be dd 1a 85 bc
       -0.10422337 -0.07936625 -0.1298147 -0.016248161
000230 0f a8 b4 be 89 3e 28 bd cd dd e9 3d 8e f0 d5 bd
       -0.3528447 -0.041075263 0.11419258 -0.10446273
000240 2b b2 1d 3e 92 6d 0d 3e 63 10 cf 3d f5 be 26 bd
       0.15399997 0.13811329 0.101105474 -0.040709455
000250 1a 8e 93 3e 05 14 70 3e 8f 40 fa 3d 32 47 89 3d
       0.28819352 0.23445137 0.12219345 0.067030326
000260 0e ca 57 3e bd 6b 29 3e 35 65 46 be 8e e1 99 bd
       0.21073171 0.16545005 -0.19374545 -0.07513724
000270 f7 e0 48 be 24 77 0f 3e 7e 44 7f bd 7f 9a 8b be
       -0.19617067 0.14010292 -0.06232118 -0.2726631
000280 37 97 6d 3d d1 5a d4 bd 28 d1 b0 bc ac dc ca 3d
       0.058005538 -0.10368884 -0.021584108 0.09905371
000290 4a 8e b8 3b de 5c b6 bd 04 82 d3 3d 9f c1 46 3e
       0.0056321966 -0.08904432 0.10327533 0.19409798
0002a0 6b 0d 9e 3d e4 91 3b 3e 40 6b c5 3d 6a 61 94 3c
       0.07717403 0.18317372 0.09639597 0.018112857
0002b0 1b d6 1b be ad ce 16 be e7 29 35 be 3c 20 1e be
       -0.15218394 -0.14727278 -0.17691766 -0.15441984
0002c0 12 7e b4 3c 0f c4 84 3b 29 3e e5 3d 3e 3f e6 3d
       0.022032771 0.0040516923 0.11193497 0.11242531
0002d0 2c 35 72 be e5 60 b0 bd 8f d3 5d 3c 52 10 7c 3d
       -0.23653096 -0.08612231 0.013539209 0.061539
0002e0 c4 a2 08 3e ee 7b 1c be f7 d2 6b 3c 6e fb 24 bd
       0.1334334 -0.1528165 0.01439356 -0.040278845
0002f0 bc c6 05 bd a3 74 51 bd c2 b5 56 bc e7 53 bc 3d
       -0.03266023 -0.051136624 -0.013104858 0.091956906
000300 4e 70 67 3d 36 4e 1a 3d c0 f8 66 3d fe 86 62 3d
       0.056503586 0.037672244 0.05638957 0.05530452
000310 72 be 8a bd 00 c9 ce bb 57 0b b4 3d bd 2a d5 bd
       -0.06774606 -0.006310582 0.087912254 -0.10408542
000320 6b 5c 55 be d3 5a e1 bb c6 66 db 3e 2d 04 0b be
       -0.20836036 -0.006877282 0.42851847 -0.13575812
000330 df 7f 8c bb c8 a8 9f be 50 44 34 3e b4 94 72 bd
       -0.0042877044 -0.31183457 0.17604184 -0.059223846
000340 50 92 31 be b3 7c 55 3e 1e 8e 4d bd b1 1b 09 3e
       -0.1734097 0.2084835 -0.05018436 0.1338947
000350 9c 9c 2b 3e a9 b2 9e 3d 78 cd 5a bc 01 52 a7 3e
       0.1675896 0.077489205 -0.013354652 0.32679752
000360 d8 d6 52 be cc bd 0d 3d 65 6f 12 be c2 4f 2c be
       -0.20589769 0.034604833 -0.14300306 -0.168273
000370 c4 59 33 bd 7b 35 ae 3d 8e 7d c9 bb 0e 0c 2f bd
       -0.04378678 0.08506294 -0.0061490005 -0.042736106
000380 03 19 e9 bc 54 2c 53 be 4c 98 de 3a 8b 1b 9b bc
       -0.02845431 -0.20622379 0.0016982644 -0.018934032
000390 7d 87 f0 3d b3 22 4c bd 82 cd a2 bd ca 3e 48 3d
       0.11744592 -0.04983778 -0.07949354 0.048888005
0003a0 a3 27 46 3d 5c eb 13 be 6a 6f c8 3c e9 b4 59 bd
       0.048377644 -0.14445251 0.024467189 -0.053151045
0003b0 99 de 19 3d 29 95 9d 3d c8 a6 95 3c e8 9c a2 bd
       0.0375658 0.07694466 0.018268004 -0.07940084
0003c0 f8 2c 03 be 4a ba 49 3c 9e 8b b3 bd 38 cb 00 bd
       -0.12810123 0.012312481 -0.08766864 -0.031443805
0003d0 4e fc a0 bd 6a af 42 bd 20 b7 f7 3d 39 ae 27 be
       -0.07860623 -0.04753057 0.12095475 -0.16375054
0003e0 df 49 31 be 09 98 6e be 83 52 6b bd d8 b8 0b 3e
       -0.17313336 -0.23300184 -0.057451736 0.13644731
0003f0 9f ad 1b 3e 00 2d 23 3e db 11 33 3e bd a2 b7 3c
       0.1520295 0.15935135 0.1748728 0.022416467

bias f4 [20]
000000 40 a5 76 be 2a f3 1f 3e ff 10 1a 3e 74 b2 4c 3e
       -0.24086475 0.15620103 0.15045546 0.1998995
000010 1d d3 34 bd 01 63 6f bd ed 6c 44 be 22 5c b9 3d
       -0.044146646 -0.058444027 -0.19182177 0.09050776
000020 61 40 b1 bd b5 cb 17 bd 1d 4a 56 bd 3f 92 7e be
       -0.086548574 -0.037059505 -0.052316774 -0.24860476
000030 05 ad 54 3d 8b af 02 be b0 d4 37 be 14 26 1d 3e
       0.051922817 -0.12762277 -0.17952228 0.15346557
000040 23 fa 17 be f1 13 dd bd 1a 12 1b be 40 4a d4 bd
       -0.14841513 -0.10794819 -0.15143624 -0.103657246

weight f4 [20, 20]
000000 29 2b 93 3e 32 f9 05 bf 76 0e 59 3e d9 dc f7 be
       0.28743866 -0.52333367 0.21196923 -0.4841068
000010 5b 5a 23 3d 4f f8 70 3e c3 db a0 3e cd 4f 90 bd
       0.03988109 0.23532222 0.31417665 -0.07046471
000020 51 d0 6a 3e 9b 93 b1 be 32 6d c2 3e 52 f6 b9 be
       0.22931029 -0.34682927 0.37973934 -0.3632074
000030 12 89 0d bf ec 17 8d 3e 45 31 74 3e 25 48 3e 3f
       -0.5528728 0.27557313 0.2384692 0.74328834
000040 04 bd 2c 3b e5 b4 90 bc b1 a0 2a 3f 3a 5e 54 3e
       0.002635778 -0.017664382 0.66651446 0.2073907
000050 0b 1b 3a 3f 63 4f 96 be a2 eb 98 be 04 e6 af 3c
       0.72697514 -0.29357442 -0.29867274 0.021471985
000060 9c a4 d7 3e 15 4b ec be f8 79 a4 be 2f 44 4e bb
       0.42117774 -0.46151033 -0.32124305 -0.0031473746
000070 3a f0 83 be b0 56 ed be ba 1a 3f 3d a2 26 f6 bb
       -0.25769216 -0.463552 0.046656348 -0.0075119296
000080 9c 41 62 3e ed 07 b2 3e 73 6d be bd db f8 37 3e
       0.2209534 0.34771672 -0.092982195 0.17966025
000090 6c 05 77 3d b1 07 80 bd 4d 69 eb 3e d4 99 28 3e
       0.060307905 -0.06251467 0.45978776 0.16464931
0000a0 21 3d a4 3e a0 6e f7 be 2b ca 46 bd 72 3c d7 bd
       0.32077888 -0.48326588 -0.048532646 -0.10509576
0000b0 12 35 2e 3e 55 0a 10 3e 86 d4 11 3f d2 e4 ad bd
       0.17012432 0.14066441 0.5696491 -0.0849091
0000c0 57 b2 5d 3e 81 d5 22 be 73 77 8b be c9 e8 74 be
       0.21650063 -0.15901758 -0.2723957 -0.23916925
0000d0 af af 85 be eb f5 b2 3e 18 66 82 be f5 d8 9b 3e
       -0.26110598 0.34953246 -0.25468516 0.30438963
0000e0 ec 1b a4 be a2 67 92 be 49 3c 68 3e 7b 04 95 be
       -0.32052553 -0.2859469 0.22679247 -0.2910498
0000f0 c6 93 25 bd e0 e8 6f 3f c3 89 c2 3e b7 ce d1 b9
       -0.04042413 0.93714714 0.3799573 -0.000400176
000100 02 a4 0a bf cf 5e 56 3e 71 0e cf 3e 73 6d 04 be
       -0.54156506 0.20934604 0.40440705 -0.12932377
000110 78 5f 66 3e f5 0d f8 3e 3f ec 4a 3e 10 d0 db 3e
       0.22497356 0.48448148 0.19816683 0.42932177
000120 76 76 9e be a2 e0 72 3e 30 08 06 be a3 35 e3 be
       -0.30949754 0.23718503 -0.13089061 -0.4437686
000130 9d fc ec be 2f b2 89 3e 1f c5 8c be d9 26 12 bf
       -0.4628648 0.26893756 -0.2749414 -0.57090527
000140 34 82 c9 3e e8 0d ac be ac c8 8c bd 56 62 19 bf
       0.3935715 -0.3360436 -0.068742126 -0.59915674
000150 a6 72 60 be c6 e4 5f 3e d5 53 d4 3e e8 9e b6 3e
       -0.21918735 0.21864614 0.4147021 0.3566811
000160 9b 1f 7b be 80 96 54 be 99 72 09 bf d9 8e 5c bd
       -0.24523775 -0.20760536 -0.5369049 -0.053847168
000170 07 50 d0 bd 32 c2 8e 3d e9 d6 6b be f6 1b 7d be
       -0.10171514 0.069706336 -0.230312 -0.24717698
000180 5b 3b 35 3e a9 a2 02 bf 58 39 f7 bd 4f fa 4a bf
       0.17698424 -0.5102945 -0.12071484 -0.7928819
000190 c0 33 ae bf 2a 1f ad 3e 38 63 07 3f 5c 3a c2 be
       -1.3609543 0.3381284 0.5288577 -0.3793515
0001a0 05 9f f5 be 68 0e 91 3e 7a 9a 9c be 16 50 c6 3e
       -0.47972885 0.28331304 -0.30586606 0.38732976
0001b0 f4 d3 55 be e3 4f 85 3e d9 ec 71 3e dc 55 09 3f
       -0.20881635 0.2603751 0.23625506 0.53646636
0001c0 99 b4 99 3e 1e 26 31 bf c9 df cc be 20 9b da bd
       0.30020598 -0.6919879 -0.40014485 -0.10674119
0001d0 cb ce 0a bf fd 2c 40 be 86 11 8e 3e 9c 94 2a bf
       -0.5422179 -0.18767162 0.27747744 -0.6663301
0001e0 ff d2 f0 3e 38 f1 0f 3f 48 5e 6f be 44 fd 17 3f
       0.47035977 0.56227446 -0.23375809 0.5937083
0001f0 df 3e 86 3c 28 b7 c0 3c 21 f0 5c 3d 9b 86 c0 be
       0.016387401 0.023524836 0.053939942 -0.37602696
000200 60 17 81 be e3 25 fc be 1e a1 01 3e 17 d1 10 bf
       -0.25213146 -0.49247655 0.12659118 -0.56569046
000210 52 c4 c4 be 55 40 e3 be ca 0f 9b 3e b8 c8 2b bd
       -0.3843103 -0.4438502 0.30285484 -0.041939467
000220 aa 17 8b 3e 21 9a fd 3d a8 7b 39 3e 4e 73 33 3d
       0.27166492 0.123829134 0.18113577 0.043811135
000230 f7 7a 2e bf 4d 0e 73 3f 44 3d af bc d4 c5 3e be
       -0.6815638 0.94943696 -0.021391518 -0.18630153
000240 ab cc 3d bf c9 ad 5c 3f 6a 4d 36 3e 6c 77 ca be
       -0.74140424 0.86202675 0.17802969 -0.39544237
000250 9c 20 bd 3e fd af 21 3e 27 13 ff 3e 3a a2 88 bd
       0.3693894 0.1578979 0.498193 -0.06671567
000260 31 df b0 bd 67 7a 70 be 79 9a 33 3e 10 02 87 3e
       -0.086363204 -0.23484193 0.17539395 0.2636876
000270 c6 68 51 bd dc cb 6f 3e 74 e6 27 bd 06 56 9b 3e
       -0.05112531 0.2341761 -0.04099126 0.30339068
000280 06 8f ba 3e 9e 66 66 bd 3f 80 3e 3d a2 3b a6 bd
       0.36437243 -0.056250207 0.046509024 -0.08116843
000290 12 bc bb 3d 5a 0b 16 be 29 48 dd 3d 92 ab 41 be
       0.09166731 -0.14652768 0.10804779 -0.18913105
0002a0 31 dd 8b be f5 b8 f5 be 9e 5c 64 3e 70 df 3a bd
       -0.27317193 -0.47992674 0.22300956 -0.045623243
0002b0 53 71 2f bd 0f 54 66 be 91 c4 3c 3d 8b 32 09 be
       -0.042832684 -0.22493003 0.046085898 -0.13398187
0002c0 76 61 60 3c b2 44 49 3e 5a 95 55 3e dd 80 05 be
       0.0136951115 0.19655111 0.20857754 -0.13037439
0002d0 31 38 90 3d d1 1f 92 3c 87 4b 25 3e 9c 8a ea be
       0.07041968 0.017837437 0.16142093 -0.45808876
0002e0 0f 0e 9c be 6a b0 fb 3e 6b 03 d7 3e 0a 01 11 3e
       -0.30479476 0.4915803 0.41994795 0.14160553
0002f0 35 da 85 3d 70 9d 05 3e fc b4 9c bc 15 31 5d 3e
       0.0653576 0.13048339 -0.019129269 0.21600755
000300 b3 b4 e6 bc 94 18 da be f4 a0 47 3e 5a 47 15 3e
       -0.028162336 -0.42596877 0.19494992 0.14578
000310 26 d1 a8 be 2e 2e f5 be 05 8e 76 be 9d 6c e2 be
       -0.32972068 -0.47886795 -0.24077614 -0.4422349
000320 bf 98 6f 3d 90 04 4f be 53 d8 e9 3e e1 a2 41 be
       0.05849528 -0.20216584 0.45672855 -0.1890979
000330 71 7b d6 3e 14 83 a9 3e 07 bc 6a 3e 94 30 3d 3e
       0.41891053 0.33107817 0.22923289 0.18475562
000340 e6 20 1d 3d 5d b9 0f be ab e7 c9 bc d3 04 62 3e
       0.038361453 -0.14035554 -0.0246466 0.22072153
000350 e4 9a 94 3b f4 33 1a 3e 48 80 6d be b4 d0 38 3e
       0.004535066 0.15058881 -0.23193467 0.18048364
000360 a3 53 77 be 26 1e 3a bd f1 47 a2 bd 03 00 34 be
       -0.24152999 -0.045438908 -0.07923878 -0.1757813
000370 d5 4a 5f 3e e5 16 4c 3d 34 3d 98 3e a5 9e 50 be
       0.2180589 0.04982652 0.29734194 -0.20373018
000380 ba 4a a7 be ea b8 28 bf 3e 2c a3 bd 4c 35 c6 3c
       -0.326742 -0.65907156 -0.07967423 0.024195336
000390 43 01 10 bf 51 95 b0 3e 69 fc 9e be 68 cc 4b bf
       -0.56251925 0.3448892 -0.3105195 -0.79608774
0003a0 c8 b9 92 be 5b af 47 3e b4 b1 f0 3e d1 5f a4 bd
       -0.28657365 0.19500487 0.47010577 -0.08026088
0003b0 22 e1 9b be 05 9a 52 3e 73 a0 5a 3f 4c a8 c1 be
       -0.304452 0.20566566 0.85401076 -0.37823713
0003c0 42 a3 27 bc aa 49 53 be fb b8 03 3d 4c 68 01 bf
       -0.010231795 -0.2063357 0.032158833 -0.5054977
0003d0 ac 29 8c 3d 3a 4c c1 bd b3 95 b3 be c8 48 ce 3d
       0.06843886 -0.09438367 -0.3507515 0.10072476
0003e0 f3 27 65 3d d7 a0 1d 3e 4c ab ca be dc 35 05 be
       0.0559463 0.15393387 -0.39583814 -0.13008827
0003f0 bb 15 98 be 5a 87 68 be 1e 08 7c be f0 91 c3 3e
       -0.2970408 -0.22707883 -0.24612471 0.3819728

bias f4 [20]
000000 3b 0d 81 be 3e 7d c6 bd 7c 43 b2 bd 31 9e 30 3c
       -0.25205407 -0.09691857 -0.08704278 0.010779903
000010 5e 6d 85 bd a6 56 5b 3e 69 53 4c be 0d d4 21 be
       -0.06515001 0.21419773 -0.19953693 -0.15803547
000020 b7 37 ab bd 96 68 9c 3d 57 c0 69 3d 9f eb aa 3c
       -0.08360236 0.07637136 0.057068195 0.020864306
000030 18 34 06 3c fd ee 22 3d b9 54 88 3d 77 a6 4e bd
       0.008191131 0.0397787 0.066567846 -0.050451722
000040 84 86 69 3e 43 e3 83 bc ed 2b 2d 3d 15 52 c7 bd
       0.2280522 -0.016099578 0.04227822 -0.09732453

weight f4 [20, 20]
000000 b7 48 45 3e 7a c7 c9 bd 68 2c c0 bd 5d 11 eb bc
       0.1926602 -0.098525 -0.0938347 -0.028694803
000010 f5 19 d9 bd 4e 9d 10 bd 43 17 cd 3d 73 5b b9 3a
       -0.10600654 -0.035306267 0.100142024 0.0014141634
000020 2f 10 36 bd ff ef d7 bd 2a 62 23 3d f8 09 07 3c
       -0.044449028 -0.105438225 0.03988854 0.008242123
000030 f3 80 2a bb 9b b7 53 bc bb 30 12 bd ee 1a 32 3e
       -0.00260168 -0.012922193 -0.035691004 0.17393085
000040 4b 36 fa bc 93 bb 31 be 36 d6 05 be 86 a2 85 be
       -0.030543467 -0.1735671 -0.13069996 -0.26100558
000050 bf 05 26 be e5 8d 1c 3e 79 e1 89 3c b3 73 67 bd
       -0.1621313 0.15288503 0.016831147 -0.056506824
000060 7a ae da 3d 7e ae e6 bd 8f 68 f0 3d 11 4b 58 be
       0.1067781 -0.112637505 0.11738693 -0.21122386
000070 00 b5 ac 3c a1 f9 00 bd 31 a1 bf 3c c3 3e 15 3e
       0.021082401 -0.031488065 0.023392292 0.14574723
000080 93 4c b0 ba 55 ae b1 3d ee 98 c3 bc 66 4f a5 3d
       -0.0013450555 0.08675829 -0.023876633 0.08071785
000090 f3 07 4b be 91 80 d4 3d 52 57 01 3d 60 fd 47 bd
       -0.19827251 0.103760846 0.031577416 -0.04882562
0000a0 16 2b 15 3a 46 02 45 3e 87 f0 39 bd 96 6e 90 3d
       0.0005690319 0.19239148 -0.0453954 0.070523426
0000b0 3b 24 0b bd ad d6 7c 3e 06 30 51 3d 5d 8a 13 be
       -0.0339701 0.24691267 0.05107119 -0.1440825
0000c0 08 6d 29 be bf 02 da bd a7 ed 0a be fa 17 2a bd
       -0.16545498 -0.10645055 -0.1356722 -0.041526772
0000d0 5d 22 6f 3d 8f 96 54 3e 7b bf 2f 3e 49 66 24 be
       0.05838238 0.20760559 0.17162888 -0.16054644
0000e0 d8 8c 19 be 56 bc 4b be 8a 76 c5 3d d4 5b a3 3d
       -0.14995134 -0.19896063 0.0964175 0.07976499
0000f0 bc 51 ec bc f2 31 0f bd 64 0a 3c 3e 38 2b f1 bb
       -0.028847568 -0.03495974 0.18363339 -0.0073598884
000100 9c bf c4 bd 7a 35 b7 bc 34 81 2d bc 21 ab e4 3c
       -0.09606859 -0.022364367 -0.010589886 0.027913632
000110 91 02 d4 3d 1d 75 b1 3d a1 86 8b 3c ae 50 b7 bc
       0.10352052 0.08664916 0.01703197 -0.022377338
000120 99 af 17 3d fa 64 52 be 03 48 f7 bb 41 de ba bc
       0.037032697 -0.20546332 -0.0075464263 -0.022811057
000130 85 53 de 3d 9a 25 da 3d 7c 3d 46 3d 7a b5 81 bd
       0.10855774 0.10651703 0.04839848 -0.06333442
000140 42 8a 03 be c8 a3 e8 3c 5e 53 db bd 87 43 bf 3d
       -0.1284571 0.02839841 -0.107092604 0.09339052
000150 ce 0d a5 bd 76 28 1d 3d f0 f4 e5 3d 9d db 5c 3d
       -0.08059274 0.038368665 0.11228359 0.053920377
000160 40 74 c8 3d ed dd 0b bd dd 43 17 be 89 8d 70 3e
       0.09787798 -0.03414719 -0.14771982 0.23491491
000170 94 a8 98 bc 9f 3d 61 bb 9a 5b 52 be a5 a6 68 be
       -0.018635072 -0.0034369004 -0.20542756 -0.2271982
000180 a8 c0 97 3e 44 9f 6e 3d 70 aa 2d bd a2 26 d8 bd
       0.29639173 0.058257356 -0.04239887 -0.105542436
000190 00 a3 8d 3c 4e c9 0e 3d 03 2f 83 be c9 49 c1 be
       0.017289639 0.034859948 -0.25621805 -0.37751606
0001a0 c8 f4 86 bd 6a d8 46 be be f1 88 3e 7f e0 dc bd
       -0.06589657 -0.19418493 0.26746935 -0.10785007
0001b0 c7 a2 ba 3c 30 56 87 bd c3 51 04 3e b2 3d cb bd
       0.022782696 -0.06608236 0.12921815 -0.09923877
0001c0 7a 7a af bd d1 d7 06 3d c6 46 cc 3d ba bc 65 3e
       -0.085682824 0.032920662 0.099744365 0.22435275
0001d0 80 a0 9d bc 94 06 41 be e4 93 8b bd aa 0f e7 3e
       -0.019241571 -0.18850166 -0.06815317 0.45129138
0001e0 2f 6b 08 3d 11 10 a4 bd db fe 61 bc 4d 52 10 be
       0.033305343 -0.08010877 -0.013793672 -0.14093895
0001f0 36 6a 29 3d dc 3d 7f bd bb ef 01 be fd ad 03 3e
       0.041361056 -0.062314853 -0.12689106 0.1285934
000200 9b 14 70 3e 30 7e 11 3e b3 2c 1e be 4d 9f 4d be
       0.2344536 0.14208293 -0.15446739 -0.200803
000210 66 f0 05 be 84 55 2e bd 0f 9a e4 3d 49 fe 90 bd
       -0.13079986 -0.042562023 0.11162197 -0.07079751
000220 aa 55 ad 3d 4f fa bf 3d 98 ad 15 3c 2b 6a c7 3d
       0.08463605 0.093739145 0.009135626 0.09737047
000230 d9 cc 60 be 52 0d da 3c 7a 66 a2 bd 02 9f d8 be
       -0.21953143 0.02661768 -0.07929702 -0.42308813
000240 d2 00 00 3e 69 7b 5b be 53 21 19 3d 27 71 89 bd
       0.12500313 -0.21433796 0.037385296 -0.06711035
000250 dd 12 84 3c c7 1f 0d bd da b1 12 be f4 75 04 be
       0.016122276 -0.034454133 -0.14325657 -0.1293562
000260 f0 8a 1e 3e 55 87 81 3e 26 bc a0 3d 6e cd 12 3e
       0.15482688 0.25298563 0.078483865 0.14336178
000270 61 0d e2 bc f4 51 1b be fa 0c 24 3d bb dd db 3c
       -0.02759427 -0.15167981 0.040051438 0.026839128
000280 31 10 97 3c 2e 9f 20 be 62 0b 2a 3d 68 61 a0 be
       0.018440338 -0.15685722 0.04151476 -0.31324315
000290 b5 1b 92 3c e1 af 19 bc 69 b6 5e be 99 35 77 bd
       0.017835477 -0.009380312 -0.21749271 -0.06035385
0002a0 3d b5 4f bd bc 54 5a 3e ee b9 a4 bd f5 8a 02 be
       -0.05070995 0.21321386 -0.08043276 -0.1274832
0002b0 5c 91 34 be 3a 68 36 be da 22 4f bc b9 f5 1b 3e
       -0.17633575 -0.17813197 -0.012642587 0.15230455
0002c0 ea 4f 6c bd cc e5 d3 3d 1e 09 94 3c 9c f9 33 3e
       -0.0576934 0.10346565 0.018070754 0.17575687
0002d0 25 ff 94 be 02 ee dd 3c 22 43 7d 3d 86 ee 3f be
       -0.2910091 0.02709103 0.0618316 -0.18743333
0002e0 22 d9 7a bd 9a e9 35 be f6 a7 df 3d f3 4f 5c 3d
       -0.06124223 -0.17764893 0.10920708 0.053787183
0002f0 0e 3e 76 3e d7 94 3c be d4 c0 b2 bd a8 0f 89 3e
       0.2404711 -0.18416153 -0.08728185 0.26769757
000300 18 09 eb 3d 5c c5 9c bd 4b 66 18 be c6 dc 2f be
       0.11476344 -0.07654831 -0.14882772 -0.17174062
000310 5f 3e 25 3d 04 b0 3a bc 79 6c 88 3c 7f d8 33 be
       0.040342685 -0.011394504 0.016653286 -0.17563055
000320 fe 6a 65 bd c6 8f 0a 3d 4a 09 73 be 89 2e dd 3c
       -0.05601024 0.03382852 -0.23734012 0.026999729
000330 98 ab 97 bc 71 12 36 3d 53 02 ec bd 6d 4b a7 3e
       -0.01851444 0.04445118 -0.11523881 0.32674733
000340 d8 0a a7 bc 2c c7 ae 3d 93 86 4c be 46 bc 60 3e
       -0.020390913 0.08534083 -0.19973211 0.2194682
000350 70 24 1f be c0 1f 62 be 8e 17 b3 bd 0a bb 86 3e
       -0.15541244 -0.22082424 -0.08744727 0.26314574
000360 27 30 fd bc b4 f2 06 be 84 80 34 be 40 96 5c 3e
       -0.03090675 -0.13178521 -0.1762715 0.21541691
000370 3c bd f3 3c 15 de 53 3e 73 12 6d be c0 ae b9 bc
       0.02975332 0.20690186 -0.23151569 -0.022666335
000380 22 00 23 3e 4c 31 c9 bd 9c 91 1d be 8e cb c8 3d
       0.1591802 -0.09823856 -0.15387577 0.0980445
000390 0d 75 8a 3e 33 d0 70 3d db bd 2c 3d 3a c5 4a 3d
       0.27042428 0.058792304 0.042173248 0.049504496
0003a0 f9 aa ba be b0 9e 33 be de 18 12 bd 5e f5 12 bd
       -0.36458567 -0.17541003 -0.035668246 -0.03587853
0003b0 50 6d 8a 3d 83 e9 47 bc ba ed db 3c 74 83 03 be
       0.06759131 -0.01220167 0.026846755 -0.12843114
0003c0 da 71 2a 3e 76 81 1f 3e af 95 bd bd a8 ae e9 bd
       0.16644993 0.15576729 -0.092570655 -0.11410266
0003d0 21 ad d1 bc f4 c7 23 3e 3c 1e 6c 3e 32 fd 2f 3d
       -0.02559525 0.15994245 0.23058408 0.042966075
0003e0 21 5b 80 3e 29 b0 07 bf cb 01 11 b9 4e 00 40 3d
       0.25069526 -0.53003174 -0.00013828946 0.04687529
0003f0 61 3b 88 bd 0d 51 82 3e 33 19 21 bb 81 7d e4 3d
       -0.06651951 0.25452462 -0.002458167 0.111567505

bias f4 [20]
000000 03 62 ac 3d 3c 28 dd bd d9 bc 4d be 86 7c e4 bd
       0.08417132 -0.1079869 -0.20091571 -0.111565635
000010 62 84 3f 3e 79 45 3b bf 64 22 97 be 54 56 01 bf
       0.18702844 -0.7315288 -0.29518425 -0.5052235
000020 d6 3a 24 be 82 1e 0a 3e f5 05 d2 3d 4d fb e5 be
       -0.16038069 0.134882 0.102550425 -0.4491829
000030 c4 ef d7 3e e1 e1 54 3e fc b7 22 3d 93 c8 65 be
       0.42175114 0.20789291 0.039726242 -0.22439794
000040 28 c0 89 be c1 08 3e be 3b fb 11 3e 33 44 dd 3e
       -0.26904416 -0.18558027 0.14255993 0.43216094

weight f4 [20, 20]
000000 6b c9 69 bc be eb 0c be eb 41 04 3d f1 4a f0 3d
       -0.014269213 -0.13761804 0.032289427 0.11733044
000010 38 4e 7d 3d 8f 09 87 be 2b 21 ae 3b 1e f3 8d 3d
       0.061842173 -0.2637448 0.0053140125 0.069311365
000020 39 13 b8 3d 02 1a ce 3d 16 c3 a5 3d d2 de 84 be
       0.089880414 0.10063554 0.0809385 -0.25951248
000030 b6 d8 78 3d 6a d2 98 bd 75 6c 5d 3d 89 df 31 3e
       0.060753547 -0.07462008 0.05405851 0.17370428
000040 d9 f4 0d bd ad 27 8d 3d f8 2d 83 bd ad e4 0e 3d
       -0.034657333 0.06892333 -0.06405252 0.03488605
000050 99 90 44 3d ba dc bb 3c e5 96 41 3d 61 7e 12 bd
       0.04798946 0.022932399 0.047263045 -0.035765056
000060 04 38 f0 bd f3 9e f5 bd 8a b6 49 3e 68 d3 11 be
       -0.11729434 -0.11993208 0.1969854 -0.14240801
000070 37 81 ee 3d be 9c 73 be 1c 42 b0 3d 4c 5c 3b be
       0.116457395 -0.23790261 0.08606359 -0.18296927
000080 b3 37 82 bc 98 56 f6 bd 4b a2 e2 bd 04 31 c2 be
       -0.0158957 -0.12028235 -0.11066111 -0.3792802
000090 da 6f 54 3d fd 31 e0 bd 59 53 6f 3e a8 7c c0 3b
       0.051864482 -0.109470345 0.23371638 0.005874235
0000a0 99 4a 8b bd 96 a8 54 3e b1 f4 4e 3c 7e 70 9f bd
       -0.06801338 0.20767435 0.012631581 -0.07785128
0000b0 89 17 83 be d3 db bb bc 89 e1 40 3e 79 20 00 3e
       -0.25603893 -0.022931969 0.18836035 0.12512387
0000c0 ff be 19 3d 9d 91 66 3d be 56 bd 3d 6a c9 4b 3e
       0.037535664 0.05629121 0.092450604 0.19901052
0000d0 f3 c9 48 bd 44 cb 15 be 40 92 c6 bd 65 9a bd 3d
       -0.04902072 -0.14628321 -0.09695864 0.09257964
0000e0 40 b2 30 bd b0 31 80 be b1 a4 db 3d 37 da 10 be
       -0.043138742 -0.2503791 0.10724772 -0.14145742
0000f0 43 79 22 3d 34 d6 09 be 2c c2 26 be b3 8a 62 bd
       0.039666425 -0.13460618 -0.16285008 -0.055308055
000100 bd b7 17 3d bf fa d4 3d 4a b4 56 3c c7 5c 8e 3d
       0.03704046 0.103993885 0.013104508 0.069512896
000110 77 51 72 bd 71 ce 37 3e 8f c2 2e 3d 2e f8 cc 3d
       -0.059159722 0.17949845 0.042666014 0.10008274
000120 da 7f 47 be e3 a2 18 3e 2f 25 5c bd 35 83 03 3e
       -0.19482365 0.14905886 -0.0537464 0.1284302
000130 0a e3 7c bd f8 da 0d 3c 32 b9 6e 3c 92 e5 86 bd
       -0.06173996 0.008658163 0.014570521 -0.06586756
000140 c5 1c 1f 3e e7 f8 6e be 1e 1e c8 3e 60 8e 8e bd
       0.15538318 -0.23337136 0.39085478 -0.069607496
000150 47 c2 f8 3c 77 c5 8d 3d 10 b8 c9 3d 39 cb 86 be
       0.030366076 0.06922429 0.0984956 -0.26326922
000160 7f 21 b8 bc 1b 31 99 be cf aa 69 3d b9 41 a6 3d
       -0.02247691 -0.29920277 0.05704766 0.08118004
000170 df d4 e6 3c ed ee 4b 3e d2 d1 32 bd 78 67 a2 3e
       0.028177677 0.19915362 -0.04365713 0.31719565
000180 22 62 da bc a6 8b c0 3e 12 97 d4 bd b7 e8 00 3e
       -0.026658121 0.37606543 -0.10380377 0.12588774
000190 cd 0b 17 3e df ac 70 3e 3c fd bb bc 26 cf 97 3c
       0.14750595 0.23503445 -0.0229479 0.018531393
0001a0 0c 95 4c be 64 73 79 be a8 86 f7 3c 8e 5e 74 3e
       -0.19978732 -0.24360424 0.030215576 0.23864195
0001b0 eb 33 6b 3e 71 a9 c5 3d 1b b4 0b 3d 43 3f 2c bd
       0.22969024 0.09651459 0.03410731 -0.04205252
0001c0 c3 44 93 bd 2a 7e 3a be d5 07 81 bf 4a 02 8e 3c
       -0.0719085 -0.1821219 -1.0080515 0.017335076
0001d0 a4 26 12 3d c5 97 ac 3d ae 6b 60 3d a1 43 5e be
       0.03568138 0.08427385 0.05479019 -0.21705486
0001e0 e2 ff f1 bd 0b 7e 28 be 91 37 31 3c 30 eb c2 bc
       -0.11816384 -0.16454332 0.010816471 -0.023793787
0001f0 ae b0 18 3d 1b c4 ff bd 70 d4 7b bd 43 2d 44 bd
       0.03727787 -0.12488576 -0.061481893 -0.047894727
000200 1b 41 ab be a2 dc 86 bd 5a 01 a4 bd 70 4a 0f 3d
       -0.3344811 -0.06585051 -0.0800807 0.0349831
000210 05 12 81 3d 62 fa 07 3e 30 4a 88 be 5d 77 63 3d
       0.06302265 0.13279107 -0.266191 0.055533756
000220 f4 1d c0 be 41 54 a9 3d 9c 49 c5 3d 6c b1 02 3e
       -0.37522852 0.08268023 0.096331805 0.12762994
000230 cf 06 04 be d4 b0 b5 3e 88 d7 0f 3e a7 da 7a be
       -0.12893222 0.35486472 0.14047062 -0.24497472
000240 9a 4a 81 be c1 20 a8 be e2 b8 73 bd aa f4 bd 3c
       -0.2525223 -0.3283749 -0.05950249 0.023187954
000250 ae 7b f9 3d e9 45 85 be ac 85 7c 3d a0 1b bb 3c
       0.12181793 -0.260299 0.061650917 0.022840321
000260 0a e4 b3 bc af 5e 0f be c4 dc 15 bf 08 eb 89 bc
       -0.021959323 -0.14000963 -0.58539987 -0.016835704
000270 9a 2d 86 bd f2 9c df 3b 4b b2 81 3e fb f4 64 3d
       -0.065516666 0.0068241293 0.2533134 0.055897694
000280 8e 4d b3 bd 72 2b 1d 3e f1 50 98 bd 35 2c 08 be
       -0.08755027 0.15348604 -0.07437313 -0.13298114
000290 94 d4 39 3b 2f 32 85 3d 48 88 13 be 4d 36 96 3d
       0.0028355466 0.065037124 -0.14407456 0.07334576
0002a0 66 d5 92 bc 92 3c 98 bd f7 67 23 be 13 a0 1c be
       -0.017924022 -0.07433428 -0.15957628 -0.15295438
0002b0 01 0c 12 3e 7c 61 4b 3d 78 a7 4b be 78 1e 8e be
       0.14262392 0.049653515 -0.19888103 -0.2775762
0002c0 5a dd 67 3e 3c 5c 5b bd a0 1e 5b 3d 73 e2 83 be
       0.22643033 -0.05355476 0.053496003 -0.25758705
0002d0 ca bd 21 bd 18 96 1e be b3 77 53 3e c5 28 3f 3d
       -0.039487638 -0.15486944 0.2065113 0.04666974
0002e0 0e 45 2a 3d 27 e4 4a bd ce 3a 7c be 49 0b b4 bd
       0.041569762 -0.04953399 -0.24631807 -0.08791215
0002f0 cd fe 1e bc 0d ea dc be 32 07 83 bc 63 38 d1 3d
       -0.009704304 -0.43147317 -0.015994642 0.10215833
000300 b7 64 50 be 7e 89 2d 3c 3a ae ad bc e3 6d 36 bd
       -0.2035092 0.010591863 -0.021201242 -0.04453839
000310 06 fe 5d 3e d3 d5 38 bb eb 83 e7 bb c3 c3 7e 3e
       0.21678934 -0.002820362 -0.0070652864 0.24879365
000320 3c a2 97 3d 06 86 a7 bd 0c 15 29 3e 42 4f 7a be
       0.074039906 -0.0817986 0.16511935 -0.24444297
000330 1b 94 a1 3d 16 f5 57 3e fc 6c d5 3d 32 e5 33 3e
       0.07889577 0.21089587 0.10421178 0.175679
000340 51 9b e8 bd 16 55 c7 3d 36 2b dd 3c 68 78 7f be
       -0.11357749 0.09733026 0.026998144 -0.24948275
000350 41 f0 00 3f c2 6a 93 3e 93 44 e3 3b ec d7 80 3e
       0.503666 0.28792387 0.006935665 0.25164735
000360 51 ff 98 bc da 7a 9e 3d 27 80 f7 bd b5 8f e1 bd
       -0.018676432 0.07738276 -0.1208499 -0.11013738
000370 01 76 ee 3d ae c9 7e bc 23 02 79 3d 65 23 00 bd
       0.11643601 -0.015551014 0.060793053 -0.031283755
000380 59 72 06 be 08 68 58 3e b9 68 cd 3d 4b ba 1e be
       -0.13129558 0.21133435 0.1002974 -0.15500753
000390 6f 62 2c 3d 1a 6f c5 bd 44 c3 08 be e4 0f 29 be
       0.04208606 -0.096403316 -0.13355738 -0.16509968
0003a0 9f c3 39 3d 6e 01 ca 3d da 9a c2 be 19 9b f3 3d
       0.045352574 0.09863554 -0.38008767 0.11894817
0003b0 11 1a fb bd 5f e5 61 3d a2 60 6e bd 56 c4 0d be
       -0.12260831 0.055150386 -0.058197625 -0.13844427
0003c0 e6 45 2e 3e 8b e6 8e bd d8 14 e5 3d 96 db 0b 3e
       0.17018852 -0.06977566 0.11185616 0.13657984
0003d0 1a 03 21 be 75 57 a8 be 40 13 7b be 9e 9a 54 3e
       -0.1572384 -0.32879224 -0.24519062 0.20762107
0003e0 c7 44 3f be a9 cd 2f 3c 65 f0 33 3e 56 55 86 be
       -0.1867858 0.010730186 0.17572172 -0.2623698
0003f0 cf 6b 97 3e 5a be 7c be 50 f1 2e 3e a5 1a 84 3e
       0.2957444 -0.24681988 0.17084241 0.25801578

bias f4 [20]
000000 6e 6f d6 3d fa 7a 15 3e ac 06 15 bd 58 60 07 3c
       0.10470472 0.14597693 -0.036383316 0.008262716
000010 4c f3 46 bd 1d 2f 0d 3e b5 20 2a 3d 27 4d 28 be
       -0.04857187 0.13787504 0.041535098 -0.16435681
000020 32 fe 88 3d d7 e2 d1 bd 1f d0 52 3e 6c 77 2b 3e
       0.06689109 -0.102483444 0.20587204 0.16744775
000030 49 26 02 3e 37 0a 08 be f3 03 11 3e 1e e2 5e bc
       0.12709917 -0.13285147 0.14161663 -0.013603715
000040 9d 92 27 be 36 54 d2 bd 2a 78 1e be 3e 7e 5e 3e
       -0.16364522 -0.10269968 -0.15475526 0.21727845
