P5/h20-bs64-transformer/decoder.pt (torch, 64771 bytes, 45 tensors)

weight f4 [29, 20]
-1.3765258 0.96979743 0.9414239 -0.7547094 -0.44462007 -0.6469834 1.065721 -0.28966582
-1.0422868 -0.16611762 -0.23391171 -0.26020852 0.35221732 -1.0237594 0.818977 -1.1484615
-0.59587127 0.62948334 1.1196172 1.1372375 -1.5944046 -2.2710083 0.021536538 -0.03983125
1.4288976 0.082087845 1.1032047 -0.64701945 0.41203773 1.0876381 -1.0694082 0.96700245
-1.6290195 0.38463357 -0.15915819 -0.40685272 -0.15500401 -0.3781979 -1.197282 -0.82235694
-1.0274003 1.8686317 -0.56113607 -0.56927294 0.18361074 -1.4999597 -1.4651715 -0.0061147865
0.44295886 -1.4230708 -0.04694152 1.6610236 0.6175383 -0.2847953 -1.2908106 0.6785803
-0.08309629 -0.91190207 1.5543326 -0.82167506 -0.77053356 -0.7428161 0.10174358 0.30119523
-1.7242179 -0.47294062 -0.5033801 -0.084965415 -0.38252717 -0.30296263 -0.035202544 -0.19045234
1.1758759 0.71835536 -0.9617731 0.3609554 0.052762415 -0.58003557 1.5849917 -1.1660997
0.21665594 -1.419202 0.107412465 0.6034507 -0.5045494 -0.7264603 -1.649845 0.8836974
-0.48210445 -0.06918676 0.27751717 0.8525349 -0.42676246 0.26574323 -0.39488098 0.31673327
-1.113806 1.408418 -0.45286378 1.6176502 0.07969272 0.63221306 -1.1578456 -0.7465143
-0.049512316 0.62681514 -1.3497462 0.76347154 -0.04402729 0.0144792 -1.1369191 -1.093901
-0.09823873 0.8353886 -0.039158754 1.3281615 -0.48833916 0.31184915 -0.6550216 0.4084638
0.17987457 -0.4281992 -0.43135718 -0.012931017 -0.3878174 -2.1123176 -0.79793483 0.5469563
0.20101182 -0.78638583 0.19968791 -0.011127491 -0.6557655 -0.49194962 0.007930519 0.70071685
0.22192807 -1.2657316 1.1953188 0.34907767 0.4533486 -0.78353256 -1.407704 -0.0720446
-0.6326577 -0.11494251 -0.19268288 0.41156954 0.08810318 -0.9897928 -0.3218283 -0.12041443
-0.054977175 -0.5348865 -1.0361454 1.3001322 -0.5501289 -0.8232292 1.1779578 0.010935072
0.4509179 0.9108302 0.40333492 2.5955553 -0.36927244 0.39055952 -0.044264834 0.3014506
1.3883892 0.6929931 1.2901362 0.64432997 -0.6025623 -0.8880365 -0.23545782 -0.71229726
1.4394789 -0.51851785 0.54423 1.5250905 -0.1637735 1.0771406 0.17863265 -0.53381205
0.23395427 0.64260614 0.025052335 2.7752535 0.44469827 0.91041005 -0.120852925 -1.4600263
0.5807599 0.18715465 1.142142 -0.11549414 -0.34050438 -0.8124145 -0.4842555 -2.977977
0.35451487 0.8193507 0.04547662 0.17137614 -0.06944684 -1.3712178 1.0672966 -0.24204968
0.12367015 -1.7070128 2.5141277 0.4844958 -1.5103573 -0.2236083 -0.22309841 -0.32498208
-0.99841547 0.82595176 0.18217461 0.19157079 0.0016449607 0.53247297 -0.27517337 -0.9231004
-0.23986353 -0.5285037 0.45127553 1.5176268 -0.1448588 -1.4280497 -0.2422223 0.6607851
-2.1112726 -0.10474443 -1.6099987 1.1258873 0.65107155 0.7051364 1.6233214 -0.6426924
-0.271667 0.014988809 -1.3578287 1.7276746 0.9182131 -0.4620525 1.3847829 0.38715726
1.341124 -0.079537645 0.88853735 0.070769764 0.2530146 -0.5106123 0.40731326 0.6717279
00000000: ff31 b0bf a544 783f 2801 713f a334 41bf
00000010: 3ea5 e3be b4a0 25bf 8c69 883f 144f 94be
00000020: a769 85bf bd1a 2abe 8d86 6fbe 0d3a 85be
00000030: d455 b43e 8c0a 83bf 7aa8 513f c900 93bf
00000040: 058b 18bf d225 213f 9e4f 8f3f 0091 913f
00000050: 7315 ccbf 3358 11c0 656d b03c 1826 23bd
00000060: 1ee6 b63f ac1d a83d d035 8d3f 11a3 25bf
00000070: 9cf6 d23e ba37 8b3f 5ee2 88bf 798d 773f
00000080: b683 d0bf b1ee c43e 5dfa 22be 004f d0be
00000090: 5fb9 1ebe 28a3 c1be 8940 99bf fc85 52bf
000000a0: da81 83bf 532f ef3f 9da6 0fbf dfbb 11bf
000000b0: 7404 3c3e aefe bfbf bd8a bbbf 8c5e c8bb
000000c0: 81cb e23e 2f27 b6bf c045 40bd 6c9c d43f
000000d0: fd16 1e3f b1d0 91be 4839 a5bf 70b7 2d3f
000000e0: 632e aabd 6a72 69bf 5ff4 c63f 4c59 52bf
000000f0: b041 45bf 3229 3ebf f05e d03d 4336 9a3e
00000100: 2cb3 dcbf 4625 f2be 85dd 00bf 5902 aebd
00000110: 9ada c3be eb1d 9bbe 8b30 10bd f005 43be
00000120: 1a83 963f 23e6 373f c336 76bf 25cf b83e
00000130: 671d 583d 367d 14bf 02e1 ca3f c142 95bf
00000140: 0edb 5d3e 69a8 b5bf 11fb db3d bf7b 1a3f
00000150: 262a 01bf 4df9 39bf 1f2e d3bf fe39 623f
00000160: 65d6 f6be cab1 8dbd bb16 8e3e ba3f 5a3f
00000170: 9c80 dabe 7f0f 883e d72d cabe dd2a a23e
00000180: 3291 8ebf 0b47 b43f c3dd e7be 290f cf3f
00000190: f035 a33d b7d8 213f 4934 94bf 901b 3fbf
000001a0: 6dcd 4abd f576 203f 7cc4 acbf df72 433f
000001b0: f655 34bd 2b3a 6d3c 9186 91bf f304 8cbf
000001c0: 6331 c9bd 07dc 553f ee64 20bd 3201 aa3f
000001d0: 9707 fabe b1aa 9f3e 7faf 27bf 2b22 d13e
000001e0: 0a31 383e ed3c dbbe d9da dcbe 9edc 53bc
000001f0: 0190 c6be 3630 07c0 7545 4cbf 5405 0c3f
00000200: 0bd6 4d3e 9550 49bf fd7a 4c3e 1450 36bc
00000210: 3fe0 27bf d2e0 fbbe 02ef 013c 2e62 333f
00000220: 1d41 633e 7e03 a2bf 3500 993f 4fba b23e
00000230: 4f1d e83e 9795 48bf a52f b4bf 1f8c 93bd
00000240: dbf5 21bf fb66 ebbd a94e 45be 3eb9 d23e
00000250: 716f b43d 1063 7dbf aec6 a4be d79b f6bd
00000260: bf2f 61bd 52ee 08bf 6aa0 84bf bb6a a63f
00000270: 3fd5 0cbf 26bf 52bf 52c7 963f 0429 333c
00000280: b6de e63e 2b2c 693f ea81 ce3e 941d 2640
00000290: 4711 bdbe 6bf7 c73e 0b4f 35bd bc57 9a3e
000002a0: bdb6 b13f ff67 313f 2f23 a53f cff2 243f
000002b0: 8641 1abf 5c56 63bf db1b 71be 1d59 36bf
000002c0: d840 b83f 96bd 04bf a852 0b3f 2a36 c33f
000002d0: 3eb4 27be bedf 893f 7aeb 363e e8a7 08bf
000002e0: b591 6f3e d681 243f 8e3a cd3c c19d 3140
000002f0: 7eaf e33e a210 693f bd81 f7bd 24e2 babf
00000300: aeac 143f 78a5 3f3e b631 923f 3188 ecbd
00000310: 9756 aebe 66fa 4fbf 56f0 f7be 2d97 3ec0
00000320: f982 b53e f8c0 513f b145 3a3d 3a7d 2f3e
00000330: 253a 8ebd 1184 afbf 2d9d 883f dfdb 77be
00000340: c746 fd3d 657f dabf 78e7 2040 d50f f83e
00000350: 6353 c1bf 93f9 64be e973 64be 0d64 a6be
00000360: 2898 7fbf 9371 533f fb8b 3a3e 222b 443e
00000370: b99b d73a 2650 083f 86e3 8cbe 4f50 6cbf
00000380: c99e 75be 054c 07bf 960d e73e 9841 c23f
00000390: de55 14be 55ca b6bf 1f09 78be 3629 293f
000003a0: 171f 07c0 3f84 d6bd 7014 cebf 131d 903f
000003b0: a0ac 263f d283 343f ffc8 cf3f 7d87 24bf
000003c0: f017 8bbe 9f93 753c 55cd adbf 7124 dd3f
000003d0: 0410 6b3f 2592 ecbe 9140 b13f 7a39 c63e
000003e0: f4a9 ab3f a2e4 a2bd 2f77 633f bdef 903d
000003f0: 218b 813e 7db7 02bf 5d8b d03e 5cf6 2b3f

weight f4 [20, 20]
-0.038683537 0.065232635 -0.24381916 0.17590642 -0.1039442 -0.08322273 -0.22535683 0.33148777
0.018988453 0.056668542 0.13569343 0.09682941 0.13985993 0.11287873 -0.41774482 0.33900094
-0.10961242 0.094572395 0.1123864 0.26687112 -0.084674604 -0.08012771 -0.07944606 -0.16674168
-0.12647954 -0.030991059 -0.15924142 0.20484151 0.16518547 0.05507773 0.06123184 0.1393047
0.18128495 0.08825315 0.09297453 -0.13954091 0.039071113 -0.15091866 -0.11736322 0.10161173
-0.023531783 0.026848512 0.030645076 0.041578673 -0.17804621 -0.08069654 -0.06885543 0.029559398
0.12434988 0.14091747 -0.1194669 -0.11730037 0.14281455 -0.002364598 0.0458152 0.09163285
-0.055072587 0.034770593 0.08506381 0.043473445 -0.11409208 0.0055446927 0.058867548 0.022372099
-0.05362816 -0.11921575 0.018281702 -0.06917062 0.23604621 0.012801119 -0.068895474 -0.08666716
-0.20547065 -0.03770679 0.02971834 -0.11601238 -0.08941031 -0.10613054 -0.07477886 -0.072996095
0.1633726 0.065817416 -0.020611666 -0.021068506 -0.06431164 0.04474138 -0.09855056 -0.05595618
-0.13860536 0.009941081 0.0886663 0.087725826 -0.098253526 -0.035372593 -0.033586465 -0.0635562
-0.081594855 -0.07031136 -0.007885437 0.056944102 -0.034368597 0.2292642 0.008986536 0.010595479
-0.19433786 -0.23290487 -0.018490406 -0.14312825 0.30109954 0.1422713 -0.082681745 -0.06668053
0.10168136 -0.10716257 -0.18212985 -0.050236214 -0.12982568 0.082674116 0.004131918 0.20610453
0.077863865 0.10190805 0.05240119 0.04968901 -0.0053538317 -0.19067314 -0.09363603 -0.034854364
0.20094368 -0.03571948 -0.11428273 -0.26665777 -0.008788966 -0.061975155 0.021181416 -0.21796085
-0.07992788 0.2640227 0.006560545 0.036216855 -0.11641801 -0.15374859 -0.006964061 -0.042451292
0.0853767 0.1783867 0.10413818 0.1859064 -0.16229059 0.075842105 0.08411282 0.1159587
0.02437498 0.15735106 -0.005020014 0.012714971 -0.08140671 -0.0056330096 0.1317646 -0.0018819667
0.07075417 0.03426338 0.15878052 0.036383223 0.073044464 -0.044693857 0.18404807 -0.08205179
-0.09694946 -0.020180939 -0.03917651 -0.06507915 -0.097711295 0.092850775 -0.086547785 0.118223816
-0.11768695 -0.05450804 -0.032588333 -0.23112802 0.032463446 0.017546786 0.04497226 -0.043823678
0.04491136 -0.026335139 0.025132297 -0.08048267 0.029387878 0.021322982 -0.05900438 0.07447665
-0.009428871 0.10097436 0.178856 0.018735157 0.054061074 -0.060789164 -0.03800963 -0.03674152
0.15112247 -0.11157463 0.041694082 -0.112014346 -0.021259349 -0.0069673546 0.060993202 0.1871874
0.07218046 -0.01501554 -0.13661574 -0.0035526706 -0.063324824 -0.030737082 -0.10676432 0.012167211
0.26333806 0.29043755 0.10516004 0.046426464 0.051795986 -0.0061738286 -0.06621221 -0.09655775
-0.020363221 0.04272681 0.08123838 -0.06049237 0.20614406 0.11248783 0.092110194 0.13035533
0.07481417 0.014780934 -0.08240287 0.06507466 -0.08270387 0.12999576 0.10736059 0.18132107
0.10915193 0.07222106 0.011475385 0.061651774 -0.05686869 0.11269157 0.06661632 0.043210406
-0.09284828 -0.04462431 0.10159726 0.14488363 -0.031444136 0.085806444 -0.12311326 0.00018809602
00000000: a172 1ebd b098 853d bbab 79be d020 343e
00000010: b2e0 d4bd ae70 aabd f1c3 66be c4b8 a93e
00000020: ac8d 9b3c 461d 683d 38f3 0a3e 7f4e c63d
00000030: 7137 0f3e f72c e73d a6e2 d5be 8891 ad3e
00000040: 7a7c e0bd 2caf c13d d72a e63d 55a3 883e
00000050: e169 adbd ff19 a4bd 9eb4 a2bd 55be 2abe
00000060: da83 01be f6e0 fdbc 2f10 23be f9c1 513e
00000070: 6126 293e 3099 613d 3dce 7a3d e4a5 0e3e
00000080: c3a2 393e 11be b43d 6e69 be3d d0e3 0ebe
00000090: 0809 203d 6c8a 1abe 215c f0bd d019 d03d
000000a0: bac5 c0bc 69f1 db3c 620b fb3c 664e 2a3d
000000b0: bf51 36be 3a44 a5bd 1304 8dbd 8d26 f23c
000000c0: 26ab fe3d ab4c 103e 10ab f4bd 2d3b f0bd
000000d0: fa3d 123e 5ff7 1abb b8a8 3b3d 01aa bb3d
000000e0: cb93 61bd 9c6b 0e3d ef35 ae3d 3611 323d
000000f0: 1ca9 e9bd 41b0 b53b 191f 713d b145 b73c
00000100: 34a9 5bbd 6327 f4bd 82c3 953c 53a9 8dbd
00000110: 19b6 713e c9bb 513c 1219 8dbd 8d7e b1bd
00000120: e666 52be 6f72 1abd e073 f33c e697 edbd
00000130: c11c b7bd f85a d9bd a925 99bd fa7e 95bd
00000140: 264b 273e 48cb 863d ccd9 a8bc dc97 acbc
00000150: d2b5 83bd bd42 373d e0d4 c9bd 4f32 65bd
00000160: 90ee 0dbe eadf 223c ad96 b53d 99a9 b33d
00000170: 2539 c9bd dae2 10bd f691 09bd c129 82bd
00000180: 341b a7bd 67ff 8fbd ec31 01bc 383e 693d
00000190: 16c6 0cbd 3cc4 6a3e 443c 133c a998 2d3c
000001a0: 8100 47be 9d7e 6ebe 3179 97bc 3690 12be
000001b0: b829 9a3e 91af 113e 0c55 a9bd cd8f 88bd
000001c0: 513e d03d 0d78 dbbd 3f80 3abe 7dc4 4dbd
000001d0: 06f1 04be 0c51 a93d 0a65 873b 110d 533e
000001e0: 1777 9f3d 2bb5 d03d a1a2 563d b486 4b3d
000001f0: 326f afbb d23f 43be 3fc4 bfbd 73c3 0ebd
00000200: 2ec4 4d3e 974e 12bd 100d eabd 5e87 88be
00000210: 98ff 0fbc a9d9 7dbd a684 ad3c 2131 5fbe
00000220: 3ab1 a3bd fc2d 873e d7f9 d63b 2058 143d
00000230: 916c eebd 4570 1dbe c732 e4bb 68e1 2dbd
00000240: fbd9 ae3d 01ab 363e 6646 d53d 3f5e 3e3e
00000250: 812f 26be 1b53 9b3d 5843 ac3d c17b ed3d
00000260: 0aae c73c a320 213e ee7e a4bb 7452 503c
00000270: 90b8 a6bd 1c95 b8bb 4ded 063e 53ac f6ba
00000280: 90e7 903d c257 0c3d 5c97 223e 9306 153d
00000290: 5698 953d e810 37bd 1977 3c3e c50a a8bd
000002a0: 708d c6bd 7f52 a5bc 8c77 20bd 3848 85bd
000002b0: dc1c c8bd 8c28 be3d f73f b1bd 541f f23d
000002c0: db05 f1bd d343 5fbd 587b 05bd d3ac 6cbe
000002d0: 64f8 043d 47be 8f3c d534 383d 7580 33bd
000002e0: f9f4 373d cabc d7bc 3fe2 cd3c 19d4 a4bd
000002f0: d9be f03c 89ad ae3c 94ae 71bd 3787 983d
00000300: 8d7b 1abc a5cb ce3d 0726 373e 797a 993c
00000310: 256f 5d3d 0ffe 78bd fcaf 1bbd 477e 16bd
00000320: d9bf 1a3e 3d81 e4bd 6ac7 2a3d c767 e5bd
00000330: 1628 aebc 684e e4bb 02d4 793d 0eae 3f3e
00000340: 59d3 933d bd03 76bc ffe4 0bbe ecd3 68bb
00000350: 72b0 81bd 55cc fbbc 40a7 dabd fb58 473c
00000360: 3fd4 863e 3bb4 943e 265e d73d ad29 3e3d
00000370: 0728 543d d44d cabb 449a 87bd 12c0 c5bd
00000380: c5d0 a6bc 4f02 2f3d 4f60 a63d d9c6 77bd
00000390: 6e17 533e 0560 e63d 45a4 bc3d de7b 053e
000003a0: 2c38 993d bb2b 723c d6c2 a8bd dd45 853d
000003b0: a660 a9bd 9c1d 053e dedf db3d 3bac 393e
000003c0: 0c8b df3d a3e8 933d 4103 3c3c 9286 7c3d
000003d0: 25ef 68bd d6ca e63d 236e 883d 65fd 303d
000003e0: 3d27 bebd fbc7 36bd 3912 d03d 605c 143e
000003f0: 91cb 00bd 4abb af3d ce22 fcbd a43b 4539

bias f4 [20]
0.6093203 0.058928348 -0.096154444 -0.11256766 -0.016189286 -0.2506899 -0.16363513 -0.07582233
0.120949164 -0.07237916 -0.042639945 -0.059120398 0.0017467869 0.18111491 -0.2874063 -0.3103669
0.065019436 -0.19133751 0.32078367 -0.050373808
00000000: 6afc 1b3f da5e 713d 9fec c4bd e089 e6bd
00000010: 659f 84bc 6d5a 80be f88f 27be bd48 9bbd
00000020: 32b4 f73d 863b 94bd 39a7 2ebd 3b28 72bd
00000030: 71f4 e43a 3076 393e eb26 93be 69e8 9ebe
00000040: e928 853d fbed 43be c23d a43e c454 4ebd

weight f4 [20, 20]
0.30510888 -0.16275097 0.12996987 -0.26740173 0.07334949 0.14074765 -0.19864719 -0.020885358
-0.14391121 -0.4589799 -0.011969568 -0.0147332745 0.09168732 -0.048761696 0.2817788 -0.08831109
0.08118659 -0.039452933 0.018875513 0.15313701 -0.13883108 -0.059995357 -0.07059686 0.19739683
0.10630846 0.1993665 -0.051429246 0.04241005 -0.2019401 -0.0034913437 -0.10610983 -0.016945241
-0.14500418 -0.15227589 -0.141764 -0.038748138 -0.044686694 -0.05740571 -0.013067779 0.007829512
-0.082350135 -0.12919757 0.10085682 0.09129894 0.09444348 0.16187336 -0.09523844 -0.23691407
0.052884113 0.033294145 -0.28566527 0.10587988 0.010855321 0.03785416 -0.20073728 0.10094954
0.015257834 0.0005814729 0.007997012 -0.13870852 0.16335626 0.24972606 -0.13314141 -0.12910824
-0.035143144 -0.017683517 0.12830454 0.13592151 -0.04696788 0.17319135 0.14708191 0.21528603
0.15589425 0.14472432 0.029798122 -0.15529037 0.05750742 -0.2764217 -0.03256457 0.22078495
-0.02528731 0.04606585 0.0052031875 -0.08201193 -0.09616622 0.09311639 -0.15882094 0.05410909
-0.03778771 0.03540196 0.05434863 -0.007198787 -0.0014192768 -0.08795789 0.13471268 -0.15528011
-0.05338265 0.007611523 -0.12913892 0.021460492 0.050794736 -0.120627165 0.066417344 -0.097377084
0.14725006 -0.002408297 0.09749133 -0.11524085 0.1480353 0.36273533 -0.037203737 0.06343506
0.15359868 0.15941268 -0.16026168 -0.11915273 0.08562975 0.015319551 -0.058095787 0.034952033
0.17792031 -0.109998636 0.15901497 -0.07467315 0.19760585 -0.08056196 -0.091894306 -0.1839832
0.38940027 0.227267 -0.11329507 0.016525092 0.15746479 0.23677804 -0.09238794 -0.12489468
-0.0111468285 0.09616378 -0.080453485 0.11376254 -0.04072183 -0.03665955 0.04559427 0.043409333
0.0019783366 0.038119055 -0.14551811 0.015687764 0.022070618 -0.0063580736 0.1657557 -0.06453143
0.18272085 -0.065271236 0.30398458 0.11696522 0.010350247 0.16956031 0.13040186 -0.07420558
0.041279584 0.016068295 -0.09372937 -0.014867966 -0.17107534 -0.13812819 0.006114491 0.062073596
-0.22051464 0.008146631 -0.0055393307 -0.12087441 0.06748984 0.02865164 -0.003466044 0.09869711
-0.08158875 0.051222123 0.031464927 -0.017008355 0.23313186 -0.009347974 0.05393273 -0.150157
-0.11260366 0.13602597 0.13334362 0.18042912 0.2734385 -0.015621444 -0.020345513 0.00997538
0.046122372 -0.017391939 -0.17563212 -0.085173726 -0.05136778 -0.04462611 -0.04735554 0.06396278
-0.029926887 0.112011686 0.16774987 -0.123482145 -0.010801671 -0.1159537 -0.07038506 0.27480447
0.1938296 -0.20225321 0.13603462 0.25282744 0.018180223 0.13033551 -0.014287552 0.029270694
0.15762578 0.228858 0.08588825 0.0710057 -0.03334787 0.11109037 0.067022055 -0.064435884
0.023767656 -0.046335287 0.19563225 -0.07163304 0.1387929 -0.25040597 0.00026414904 0.05358975
-0.06403934 0.04127997 6.176469e-06 -0.039700177 -0.07197679 0.1719414 -0.09680561 -0.10793449
0.025476841 -0.07008112 0.07146817 -0.15548205 -0.1483647 0.004668266 0.08040155 -0.011287515
0.09204612 0.045862895 -0.11137345 0.010120832 -0.019348966 0.03450766 0.01451329 -0.044738356
00000000: 3b37 9c3e 31a8 26be d216 053e e1e8 88be
00000010: 4238 963d 2720 103e 2b6a 4bbe c517 abbc
00000020: 765d 13be 6aff eabe 021c 44bc d563 71bc
00000030: 90c6 bb3d 58ba 47bd 5045 903e 72dc b4bd
00000040: 2845 a63d 6699 21bd d2a0 9a3c f3cf 1c3e
00000050: bc29 0ebe b1bd 75bd 1695 90bd 6522 4a3e
00000060: 40b8 d93d bb26 4c3e 79a7 52bd 29b6 2d3d
00000070: 63c9 4ebe 07cf 64bb 1c50 d9bd bfd0 8abc
00000080: fa7b 14be 36ee 1bbe 952a 11be 5eb6 1ebd
00000090: 6509 37bd 4022 6bbd 3d1a 56bc 5a47 003c
000000a0: 30a7 a8bd 5e4c 04be 058e ce3d f0fa ba3d
000000b0: 956b c13d 21c2 253e 5f0c c3bd 9a99 72be
000000c0: 039d 583d 715f 083d b842 92be 8dd7 d83d
000000d0: 84da 313c f70c 1b3d 138e 4dbe a2be ce3d
000000e0: fffb 793c fc6d 183a e605 033c 9b09 0ebe
000000f0: dd46 273e 30b8 7f3e 3956 08be f334 04be
00000100: 42f2 0fbd 06dd 90bc 4462 033e 022f 0b3e
00000110: 6461 40bd 1359 313e a49c 163e f173 5c3e
00000120: bea2 1f3e 9d32 143e 311b f43c 7004 1fbe
00000130: e78c 6b3d 2587 8dbe 6d62 05bd 7315 623e
00000140: 5527 cfbc 8baf 3c3d 807f aa3b dff5 a7bd
00000150: ccf2 c4bd ceb3 be3d f5a1 22be 7ea1 5d3d
00000160: 49c7 1abd a501 113d ab9c 5e3d cde3 ebbb
00000170: 0707 baba 4423 b4bd 1ff2 093e c001 1fbe
00000180: c4a7 5abd 156a f93b fe3c 04be eacd af3c
00000190: 240e 503d 600b f7bd d105 883d a36d c7bd
000001a0: b8c8 163e 85d4 1dbb 89a9 c73d 6503 ecbd
000001b0: 9196 173e 72b8 b93e f262 18bd 3eea 813d
000001c0: f948 1d3e 143d 233e a31b 24be 5906 f4bd
000001d0: a65e af3d dbfe 7a3c d9f5 6dbd dd29 0f3d
000001e0: be30 363e f746 e1bd d2d4 223e 3dee 98bd
000001f0: 3059 4a3e abfd a4bd 1533 bcbd 1866 3cbe
00000200: 795f c73e aeb8 683e 3f07 e8bd a15f 873c
00000210: 733e 213e f175 723e e335 bdbd c8c8 ffbd
00000220: 30a1 36bc 84f1 c43d ccc4 a4bd 56fc e83d
00000230: efcb 26bd 5328 16bd 0fc1 3a3d fccd 313d
00000240: fba6 013b ba22 1c3d b302 15be a083 803c
00000250: 71cd b43c 6357 d0bb ddbb 293e 0e29 84bd
00000260: 2d1b 3b3e edac 85bd dea3 9b3e 768b ef3d
00000270: 1594 293c 38a1 2d3e 1188 053e 18f9 97bd
00000280: c814 293d a8a1 833c 2ff5 bfbd c598 73bc
00000290: 602e 2fbe 7a71 0dbe 115c c83b e240 7e3d
000002a0: 97ce 61be 7279 053c 4683 b5bb 018d f7bd
000002b0: 1d38 8a3d d8b6 ea3c 9226 63bb b621 ca3d
000002c0: 0118 a7bd 4ace 513d 5ee1 003d 1b55 8bbc
000002d0: 1eba 6e3e 3f28 19bc 91e8 5c3d c2c2 19be
000002e0: bf9c e6bd 644a 0b3e 3b8b 083e 69c2 383e
000002f0: 2200 8c3e 16f1 7fbc a2ab a6bc c76f 233c
00000300: d0ea 3c3d 8a79 8ebc e8d8 33be 906f aebd
00000310: 0567 52bd dec9 36bd e2f7 41bd ebfe 823d
00000320: 3b29 f5bc 6266 e53d 9fc6 2b3e 35e4 fcbd
00000330: 7ef9 30bc 2279 edbd 0b26 90bd 2cb3 8c3e
00000340: 447b 463e 771b 4fbe a94c 0b3e 9972 813e
00000350: b1ee 943c ac76 053e 5616 6abc 18c9 ef3c
00000360: a768 213e c059 6a3e 2ee6 af3d 706b 913d
00000370: c797 08bd 5983 e33d dc42 893d f6f6 83bd
00000380: 63b4 c23c 12ca 3dbd d253 483e 58b4 92bd
00000390: ba1f 0e3e 3635 80be 7c7d 8a39 ed80 5b3d
000003a0: 0f27 83bd 3015 293d 773f cf36 a79c 22bd
000003b0: 9168 93bd 6811 303e 0542 c6bd c20c ddbd
000003c0: cfb4 d03c b186 8fbd e75d 923d b036 1fbe
000003d0: eaec 17be 41f8 983b 91a9 a43d 45ef 38bc
000003e0: ad82 bc3d bbda 3b3d c317 e4bd d9d1 253c
000003f0: b981 9ebc e757 0d3d 26c9 6d3c 913f 37bd

bias f4 [20]
0.22701067 -0.12569444 0.20959467 -0.04895428 -0.04624258 0.14203529 0.02175862 0.09916462
-0.1574695 -0.1141547 -0.23748045 0.08906891 0.00031241315 -0.017926931 -0.13855612 -0.12868021
0.030111125 -0.18953344 0.3040927 -0.12672539
00000000: 7c75 683e 0bb6 00be fc9f 563e 4884 48bd
00000010: dc68 3dbd b371 113e 223f b23c d216 cb3d
00000020: af3f 21be f0c9 e9bd 132e 73be c369 b63d
00000030: 62cb a339 80db 92bc a8e1 0dbe bfc4 03be
00000040: 9bab f63c 0e15 42be 0ab2 9b3e 4dc4 01be

weight f4 [20, 20]
-0.28648546 -0.03659926 -0.21762235 0.26206884 0.021253599 -0.36235723 0.1471618 0.14348291
0.2813748 0.26529387 -0.14611602 0.37351927 0.11291111 -0.114186086 -0.16079149 0.1701834
-0.2086172 -0.14484026 -0.06392241 0.16693428 -0.07700422 0.02905209 0.19928813 -0.035093278
-0.12402545 -0.08387857 -0.14639856 0.06978174 -0.1254975 -0.023990635 -0.4531564 -0.1649545
-0.12253088 -0.28476214 0.16378798 -0.23493923 0.12931578 -0.13386437 0.06261964 0.25846994
0.5855755 -0.14542611 -0.2809268 -0.04365323 0.543884 -0.0891486 -0.20954804 -0.23321766
-0.19052553 -0.3253751 -0.30177608 -0.10285972 0.073671296 -0.43816072 -0.35470945 -0.4645577
0.5221513 -0.11012239 0.022871688 -0.045184806 0.06596874 0.053002544 -0.035219308 -0.53588885
0.26493055 -0.21906373 -0.19671755 -0.17848529 -0.20423889 -0.17330441 -0.4919497 -0.7966748
-0.0067521334 0.12984948 0.013789802 -0.5040353 0.49018404 0.2797098 -0.15216295 -0.06197924
0.6145321 -0.46176168 -0.5047689 0.31302235 -0.19686465 -0.09013852 -0.4371808 0.076778024
-0.016305387 -0.10533842 0.36310944 0.4831162 0.0715588 0.33046693 -0.39520776 -0.012171593
0.03615175 0.18279259 0.31216526 -0.55788374 0.26397324 0.026652016 0.21472943 -0.6155389
0.056325108 -0.15701576 0.070244744 -0.16906954 -0.41734004 0.21220785 -0.38545686 -0.12494949
-0.09130029 -0.10754568 0.14958194 -0.34176812 0.32721344 0.04411781 -0.2731465 -0.14775051
0.48996022 -0.2515308 0.07898804 0.12189634 0.15617979 -0.23150885 -0.27434048 -0.028665505
-0.311483 -0.29069635 0.4167844 -0.056695323 0.24035887 0.15354316 -0.12102797 -0.3839987
0.5125344 -0.08256778 -0.0050317775 0.10194736 -0.018167265 -0.15745285 -0.19364096 0.25165305
0.04908892 0.03700637 -0.048081692 -0.14681424 -0.042911302 -0.22707969 0.52786374 0.26713806
0.21420026 0.14365816 -0.07469435 0.50980383 0.09362202 0.09742247 -0.11117422 -0.16050664
-0.18312891 0.32444984 0.35751516 -0.25250342 -0.036078207 0.382565 0.14362463 -0.28238115
0.004794213 0.29190043 -0.35976136 -0.21029685 -0.04118259 -0.24572746 0.3606116 0.54238534
-0.08896945 -0.09924572 -0.4099434 0.0024031664 -0.035841074 0.22378938 -0.07872328 0.11341055
0.18526195 0.20419297 0.38369045 0.31887114 0.038387217 0.08662578 -0.21693075 -0.043818586
-0.18499081 0.4136172 0.014753325 0.4030215 -0.42519882 -0.08289298 0.028139662 0.04060803
-0.13466498 -0.14303799 -0.13731724 0.047006372 -0.25798738 -0.20958169 0.1292852 -0.12460622
-0.010688736 -0.10378087 -0.26112545 0.29666448 0.07741114 0.0006990814 0.2083844 -0.40427175
0.09472236 0.17571764 0.08389731 0.0020828373 -0.4145741 -0.07985855 0.11753377 0.29329073
0.067492485 -0.19737892 0.058108777 0.21879281 0.37233555 0.21395712 0.094027534 0.25772378
0.26633212 -0.06562814 -0.4099059 0.25555384 -0.61671144 -0.19792618 0.53135264 0.24730529
-0.2695428 0.47952545 -0.007990716 0.52218497 -0.42202458 -0.2917748 0.27144626 0.21725345
0.2589782 -0.16068791 0.22960149 0.0547679 -0.060233667 0.018866237 0.29817334 0.15895726
00000000: 39ae 92be 1be9 15bd 65d8 5ebe e32d 863e
00000010: 071c ae3c e386 b9be 95b1 163e 2fed 123e
00000020: 5c10 903e 99d4 873e 709f 15be eb3d bf3e
00000030: f13d e73d 65da e9bd 86a6 24be 8f44 2e3e
00000040: bf9f 55be 0151 14be c1e9 82bd d2f0 2a3e
00000050: 63b4 9dbd a6fe ed3c 3012 4c3e f8bd 0fbd
00000060: 0e01 febd 87c8 abbd 81e9 15be bbe9 8e3d
00000070: 6b82 00be 0288 c4bc 1e04 e8be d5e9 28be
00000080: 78f1 fabd 58cc 91be 09b8 273e e993 70be
00000090: 5b6b 043e be13 09be ba3e 803d 2c56 843e
000000a0: 47e8 153f 95ea 14be a3d5 8fbe bbcd 32bd
000000b0: fb3b 0b3f 8b93 b6bd c393 56be 9cd0 6ebe
000000c0: 2019 43be 9197 a6be 6582 9abe 1ea8 d2bd
000000d0: fae0 963d 9a56 e0be 7a9c b5be 82da edbe
000000e0: b5ab 053f d987 e1bd 685d bb3c b413 39bd
000000f0: 9e1a 873d 3219 593d 1f42 10bd 0330 09bf
00000100: faa4 873e 3e52 60be 5370 49be d9c4 36be
00000110: 0024 51be b676 31be d5e0 fbbe e1f2 4bbf
00000120: 0041 ddbb 43f7 043e 9fee 613c 7508 01bf
00000130: 67f9 fa3e 1f36 8f3e 9bd0 1bbe f2dd 7dbd
00000140: fa51 1d3f 076c ecbe 8938 01bf 7744 a03e
00000150: e396 49be 8b9a b8bd 29d6 dfbe cc3d 9d3d
00000160: e092 85bc abbb d7bd 7be9 b93e 025b f73e
00000170: 6c8d 923d f632 a93e ac58 cabe 5c6b 47bc
00000180: db13 143d fb2d 3b3e 20d4 9f3e 78d1 0ebf
00000190: 8027 873e 5455 da3c 08e2 5b3e f593 1dbf
000001a0: 28b5 663d bdc8 20be 7adc 8f3d 9120 2dbe
000001b0: 98ad d5be 044d 593e 9a5a c5be 85e5 ffbd
000001c0: a5fb babd e940 dcbd 022c 193e 3bfc aebe
000001d0: 8588 a73e e0b4 343d dcd9 8bbe e94b 17be
000001e0: 11dc fa3e a5c8 80be 7bc4 a13d caa4 f93d
000001f0: 98ed 1f3e a810 6dbe 5b76 8cbe ecd3 eabc
00000200: b37a 9fbe 27d6 94be c464 d53e 5b39 68bd
00000210: a320 763e 6b3a 1d3e 83dd f7bd 7a9b c4be
00000220: 7435 033f 4c19 a9bd 9ce1 a4bb c7c9 d03d
00000230: 84d3 94bc 523b 21be d149 46be abd8 803e
00000240: 7711 493d fe93 173d 4ff1 44bd 7956 16be
00000250: c3c3 2fbd 9487 68be 1422 073f 52c6 883e
00000260: 5057 5b3e 201b 133e 5af9 98bd 8182 023f
00000270: e7bc bf3d 6f85 c73d 4faf e3bd da5b 24be
00000280: 2586 3bbe 4a1e a63e 3a0c b73e 2148 81be
00000290: bec6 13bd 8fdf c33e 5612 133e 4394 90be
000002a0: c618 9d3b f973 953e a432 b8be 0f58 57be
000002b0: 13af 28bd fb9f 7bbe 15a2 b83e c4d9 0a3f
000002c0: 9d35 b6bd 5741 cbbd 1ae4 d1be 717e 1d3b
000002d0: 17ce 12bd 0b29 653e ac39 a1bd ca43 e83d
000002e0: 4fb5 3d3e f617 513e 1373 c43e 1443 a33e
000002f0: ea3b 1d3d db68 b13d 1823 5ebe 1e7b 33bd
00000300: 3b6e 3dbe a2c5 d33e eeb7 713c d658 ce3e
00000310: a9b3 d9be cbc3 a9bd 2685 e63c 9b54 263d
00000320: 9ee5 09be 8d78 12be e49c 0cbe c189 403d
00000330: ec16 84be 959c 56be 5763 043e 8c31 ffbd
00000340: cf1f 2fbc 118b d4bd 3cb2 85be 68e4 973e
00000350: bb89 9e3d 8f42 373a b862 553e b5fc cebe
00000360: ccfd c13d 53ef 333e 5ad2 ab3d 3680 083b
00000370: 0e43 d4be e18c a3bd 8cb5 f03d 342a 963e
00000380: 8039 8a3d b31d 4abe 7803 6e3d 390b 603e
00000390: c4a2 be3e 9317 5b3e 8291 c03d 5ff4 833e
000003a0: af5c 883e 0c68 86bd 30df d1be f4d7 823e
000003b0: cde0 1dbf 29ad 4abe ba06 083f 993d 7d3e
000003c0: 8401 8abe 5c84 f53e 7eeb 02bc eaad 053f
000003d0: 9b13 d8be 8263 95be 01fb 8a3e b077 5e3e
000003e0: ca98 843e 5f8b 24be a71c 6b3e 4e54 603d
000003f0: 94b7 76bd 5e8d 9a3c 2daa 983e b1c5 223e

bias f4 [20]
0.04983823 0.07813788 -0.18531165 -0.19117482 0.06093531 -0.33311597 -0.021175921 0.18820602
-0.11502941 0.049528196 0.019291287 0.028552698 0.33809417 0.26185474 -0.26666063 -0.12120845
0.030858103 -0.2940796 0.12715997 0.1545523
00000000: 2c23 4c3d c106 a03d 56c2 3dbe 55c3 43be
00000010: 4e97 793d 2d8e aabe 2079 adbc 14b9 403e
00000020: 8a94 ebbd 14de 4a3d c308 9e3c 59e7 e93c
00000030: ae1a ad3e d311 863e be87 88be 233c f8bd
00000040: 22ca fc3c 9a91 96be 3936 023e f542 1e3e

weight f4 [20, 20]
0.14863478 0.14556815 0.18315817 0.07243568 -0.13071685 -0.026979439 -0.1606668 0.18811956
-0.20219405 -0.060751744 0.13829316 0.09977383 -0.050248675 -0.14894693 0.047164723 0.16826573
-0.029073576 0.27631524 -0.34908327 -0.14923744 -0.06736809 -0.041395955 0.16042179 0.015605192
-0.22279648 -0.06592865 0.13770503 -0.263309 0.07824651 -0.0053053424 -0.28114766 0.16199505
-0.18012445 -0.03964312 -0.007912166 -0.033259604 -0.032908686 0.13033204 -0.23415674 -0.10298224
-0.6078641 0.23786728 -0.1301326 -0.15489845 -0.055068433 -0.0011910367 -0.06879872 -0.074830405
-0.084754996 0.057037458 -0.17553574 0.3149607 0.17967148 -0.35701615 -0.24951468 -0.18816364
0.03204865 0.40618548 -0.13404673 -0.12262113 0.4409082 -0.0015669812 -0.05913922 -0.27381292
0.18059306 -0.16224568 -0.12320782 0.31456855 0.25737754 0.13915119 -0.014554709 0.09914011
-0.053340934 -0.058618907 0.26103637 0.06496983 -0.31791973 0.016712148 -0.055875674 0.33326313
0.013600978 0.059139006 -0.09362238 0.14419259 -0.07058926 0.11357613 0.13315096 -0.15074736
0.11743806 0.113745056 0.0043569333 0.081587285 0.028464524 -0.009655805 -0.012226648 0.012893943
-0.13169615 0.075053856 0.18469459 0.03398647 -0.0267684 -0.008109995 -0.031374734 -0.10566221
0.15792514 0.1439788 -0.019310623 -0.009470853 -0.101400495 -0.09691801 0.018943558 -0.09363352
0.09886825 0.008493771 -0.14676818 -0.020300006 -0.053870633 0.021471582 0.09092289 -0.1781263
0.07183168 -0.20761293 -0.010719611 0.22223946 0.1274541 0.020769188 0.018208966 0.06880461
-0.10322339 0.16557528 0.045312844 0.029856551 0.05685243 0.14827657 -0.021087809 0.061345812
-0.1462913 -0.114361614 -0.13160881 -0.19003136 -0.011931666 -0.21348982 -0.08999689 -0.008889947
0.02317744 0.0033295816 -0.1772839 0.22109933 -0.024952149 -0.02754599 -0.1418482 -0.11768263
0.035880286 0.032131106 -0.0010663195 -0.034378503 0.005897067 -0.05946824 0.09897507 0.07448282
0.024416592 -0.13352811 -0.2281366 -0.33271456 0.039584752 -0.12406633 0.18449745 -0.010966493
-0.054495193 0.10152209 0.31684056 -0.0460159 0.057968885 -0.006324004 0.13551165 -0.14315447
0.12759008 0.07862107 0.13425733 -0.12547572 0.02060103 -0.34133518 0.15095289 -0.21954164
-0.027726231 -0.16819872 -0.08498602 -0.14919874 -0.040197268 -0.032187764 0.14949809 -0.05856032
0.000669464 -0.18061931 0.3013205 0.058421236 0.10563415 -0.15519063 -0.31422642 0.26241598
-0.14172487 0.16350624 -0.2714283 0.07334266 -0.01227774 -0.18045782 0.12467726 0.033082113
-0.031282816 0.18792519 -0.25441825 0.16441782 -0.1122392 0.084245175 -0.065990254 -0.029546162
0.062025044 0.18807082 -0.16001473 -0.042841382 0.21515627 -0.19302312 0.24073778 -0.04471574
0.14875132 0.22759087 -0.38014013 0.15640889 0.0050862855 -0.023542086 -0.56901455 -0.100709915
0.0011743183 0.034280512 -0.058843378 0.011732088 -0.013870014 -0.23857747 0.15544169 0.13912824
-0.026634162 -0.0309945 0.09509408 0.11807741 -0.26861507 -0.017571941 -0.042394344 -0.05138658
-0.03619651 0.040080864 -0.15120053 0.09482223 0.056223806 -0.00473845 0.32979667 -0.22928822
00000000: b733 183e d10f 153e d18d 3b3e 2859 943d
00000010: a3da 05be fc03 ddbc d685 24be 6aa2 403e
00000020: f50b 4fbe d2d6 78bd b99c 0d3e 3956 cc3d
00000030: 8ed1 4dbd 8b85 18be cc2f 413d da4d 2c3e
00000040: b52b eebc 3179 8d3e 0bbb b2be b3d1 18be
00000050: 48f8 89bd ce8e 29bd 9c45 243e ebac 7f3c
00000060: c324 64be 9a05 87bd 8c02 0d3e 70d0 86be
00000070: b53f a03d 70d8 adbb 96f2 8fbe 08e2 253e
00000080: 8b72 38be d360 22bd 08a2 01bc 393b 08bd
00000090: 42cb 06bd c375 053e c9c6 6fbe 5ae8 d2bd
000000a0: fb9c 1bbf 7b93 733e 7b41 05be b39d 1ebe
000000b0: 708f 61bd 8f1c 9cba 58e6 8cbd af40 99bd
000000c0: 0794 adbd 1ca0 693d a4bf 33be 8742 a13e
000000d0: cdfb 373e d2ca b6be c780 7fbe f8ad 40be
000000e0: 7245 033d 8bf7 cf3e 8c43 09be c920 fbbd
000000f0: b8be e13e 2a63 cdba f73b 72bd 3531 8cbe
00000100: 63ed 383e bb23 26be 6254 fcbd 210f a13e
00000110: fdc6 833e a67d 0e3e e076 6ebc f809 cb3d
00000120: 067c 5abd 611a 70bd 8fa6 853e e70e 853d
00000130: 60c6 a2be eae7 883c e4dd 64bd 77a1 aa3e
00000140: a3d6 5e3c be3b 723d 17bd bfbd 39a7 133e
00000150: 1a91 90bd 9a9a e83d ba58 083e 845d 1abe
00000160: 5e83 f03d 2bf3 e83d 9bc4 8e3b 3c17 a73d
00000170: 6f2e e93c 6233 1ebc 4752 48bc 1e41 533c
00000180: 5bdb 06be d6b5 993d 9420 3d3e 6635 0b3d
00000190: 6749 dbbc c9df 04bc cb82 00bd 6e65 d8bd
000001a0: 21b7 213e 2e6f 133e 5031 9ebc a32b 1bbc
000001b0: 10ab cfbd f37c c6bd 852f 9b3c eec2 bfbd
000001c0: 707b ca3d 7529 0b3c 664a 16be 334c a6bc
000001d0: 74a7 5cbd 2ce5 af3c c835 ba3d be66 36be
000001e0: 7d1c 933d 7c98 54be 4fa1 2fbc be92 633e
000001f0: 5483 023e 2524 aa3c f82a 953c 6ee9 8c3d
00000200: c966 d3bd 918c 293e f699 393d ba95 f43c
00000210: 18de 683d d0d5 173e 57c0 acbc bf45 7b3d
00000220: 63cd 15be 6c36 eabd 76c4 06be 9597 42be
00000230: 097d 43bc 139d 5abe 4a50 b8bd 24a7 11bc
00000240: 9dde bd3c 1c35 5a3b e989 35be dd67 623e
00000250: 7368 ccbc 21a8 e1bc a840 11be 9703 f1bd
00000260: 35f7 123d e89b 033d bfc3 8bba 79d0 0cbd
00000270: 2f3c c13b f894 73bd 71b3 ca3d 738a 983d
00000280: 4e05 c83c 98bb 08be a49c 69be 9059 aabe
00000290: 9f23 223d 7d16 febd e6ec 3c3e ceac 33bc
000002a0: 5a36 5fbd d0ea cf3d ed38 a23e 2b7b 3cbd
000002b0: c870 6d3d 9739 cfbb 91c3 0a3e 1697 12be
000002c0: f9a6 023e 1504 a13d c17a 093e b57c 00be
000002d0: 7ec3 a83c 7cc3 aebe 6593 1a3e 86cf 60be
000002e0: 1f22 e3bc 493c 2cbe 270d aebd 8ec7 18be
000002f0: e4a5 24bd 51d7 03bd 0716 193e f2dc 6fbd
00000300: f87e 2f3a 45f4 38be ae46 9a3e 1b4b 6f3d
00000310: b856 d83d 4bea 1ebe 49e2 a0be 635b 863e
00000320: 5320 11be 2e6e 273e a6f8 8abe ad34 963d
00000330: 9328 49bc efc9 38be cb56 ff3d 1c81 073d
00000340: 6922 00bd 766f 403e 1c43 82be 255d 283e
00000350: aadd e5bd bc88 ac3d e625 87bd cb0a f2bc
00000360: f90d 7e3d a395 403e e7da 23be 727a 2fbd
00000370: ed51 5c3e daa7 45be f783 763e da27 37bd
00000380: 4452 183e 950d 693e baa1 c2be a729 203e
00000390: dbaa a63b 55db c0bc f0aa 11bf 0041 cebd
000003a0: 95eb 993a b969 0c3d c105 71bd f237 403c
000003b0: 0e3f 63bc a74d 74be 1b2c 1f3e a277 0e3e
000003c0: e32f dabc 2de8 fdbc afc0 c23d 92d2 f13d
000003d0: ea87 89be 08f3 8fbc b1a5 2dbd bc7a 52bd
000003e0: cb42 14bd d52b 243d 50d4 1abe 2832 c23d
000003f0: ef4a 663d 0045 9bbb 1cdb a83e 88ca 6abe

bias f4 [20]
0.3840786 0.15889165 -0.1814928 0.11637251 0.19455595 -0.28677723 -0.32010585 0.11684174
0.17490019 0.09817126 0.36194 -0.07736496 0.16117927 0.09154189 -0.16664807 0.11050918
-0.098207876 0.16381048 -0.055766188 0.2410745
00000000: f3a5 c43e 7eb4 223e 40d9 39be b654 ee3d
00000010: ad39 473e 77d4 92be eae4 a3be b94a ef3d
00000020: 0919 333e 030e c93d 3350 b93e 8571 9ebd
00000030: 2e0c 253e 507a bb3d cba5 2abe a352 e23d
00000040: 3621 c9bd efbd 273e 166b 64bd 3cdc 763e

weight f4 [20, 20]
-0.15829973 -0.03038721 0.15454099 -0.19574466 -0.34607568 0.049961295 -0.15128143 -0.26584446
0.18932004 -0.291898 -0.17390972 0.09516067 -0.44179422 -0.031163272 -0.20439526 -0.37133718
-0.047489494 -0.0352634 -0.04578344 -0.13262068 -0.03328288 -0.06857444 0.05057424 -0.13825004
-0.12090804 0.09336094 0.08694407 -0.082236394 0.11962009 -0.041400716 0.032906294 0.13775922
-0.25404254 0.046316504 -0.26750368 -0.068856075 -0.3012667 0.024673512 0.20398177 0.004079856
0.049301986 0.014081688 0.016506797 0.113140896 0.18689512 0.33351406 0.09390111 0.38828906
0.046552256 0.23651756 0.24300493 -0.256654 0.25960153 -0.020938696 0.32669103 0.15630329
-0.40933806 0.28203815 0.28302523 0.018305505 -0.43530005 0.13027647 0.099604376 0.38806024
-0.021523627 -0.093742326 0.10474014 -0.21243656 -0.096122295 -0.22160865 -0.00524233 0.4952993
-0.28049418 0.23026039 -0.31587312 0.027236814 0.2868106 -0.30749828 -0.24702425 -0.07511755
-0.09580882 0.093573816 -0.13891856 0.13209872 -0.15612611 0.19390601 0.015040743 -0.009730958
0.08630527 0.07749491 -0.08775362 0.1533378 0.02429513 -0.04094274 0.024608186 -0.037534997
0.09060419 0.022932474 0.037805878 -0.1407185 0.14002012 0.04613757 0.013634529 0.030543316
0.11457353 -0.004324983 0.078377634 0.066263415 0.013241301 -0.17531323 0.083014816 -0.31639516
-0.047402937 0.007499871 0.13357557 0.1451467 0.16571078 -0.15692203 0.041051395 -0.2740552
0.1161023 -0.31180957 0.32119825 -0.34872466 0.064103596 0.051403742 0.10436839 0.09032532
0.2625061 0.26351652 0.09780322 -0.10422166 -0.086797066 0.08929552 0.13027014 -0.0026258808
-0.015698038 -0.014393717 0.04421764 -0.15492168 0.07482594 -0.0064402395 0.032962374 -0.1941013
-0.10428421 -0.11525564 -0.08628801 0.015808197 -0.042481795 -0.1030342 0.011572906 -0.10164111
0.007996422 0.05978077 -0.0676206 0.07756657 0.24059081 -0.10312585 -0.38950753 0.11582674
-0.03190093 -0.13036777 0.14046063 0.122295745 -0.24333766 -0.19468744 0.052919 0.041769292
-0.06867959 0.24140754 -0.14254256 -0.0139248 -0.04213379 -0.025471224 -0.34765035 -0.10743492
0.11939171 -0.03217277 0.090505295 0.18366896 0.20485061 0.09644752 0.308124 0.38686487
-0.054113418 0.0023563006 0.102407515 -0.06189958 -0.11107668 -0.21184304 0.08748882 0.1224972
-0.18859924 0.1290261 -0.1688468 -0.09422895 -0.24742658 0.14817426 0.19983296 0.34158006
-0.3176911 -0.33591413 -0.116018906 -0.09033485 -0.08995605 -0.041462988 0.048775792 -0.19746336
0.045957997 0.050495155 -0.17072509 0.16536814 -0.1515736 -0.1663011 -0.20323154 -0.050314907
-0.09268095 0.34142923 -0.45889223 -0.030821126 0.10684474 0.19750737 -0.042194586 -0.23448248
-0.04895682 -0.04177972 -0.08469921 -0.28097072 -0.059280332 -0.25891858 -0.0124757765 0.0896688
-0.05573944 0.12182778 0.3248704 0.1550479 0.16044512 -0.38985395 -0.20274952 0.052996784
0.08059229 0.05571011 0.16027844 0.23604318 -0.026259588 0.043003596 0.08300007 -0.27222997
-0.09724138 0.046309773 0.0480367 -0.08586281 -0.2425236 -0.005413597 -0.31497067 0.10854229
00000000: 5319 22be 99ee f8bc fe3f 1e3e 4a71 48be
00000010: d530 b1be 37a4 4c3d 85e9 1abe c41c 88be
00000020: 1ddd 413e a873 95be 6415 32be 99e3 c23d
00000030: da32 e2be 1e4a ffbc fe4c 51be e81f bebe
00000040: 5884 42bd 5b70 10bd 6b87 3bbd b7cd 07be
00000050: a153 08bd c270 8cbd ef26 4f3d 6b91 0dbe
00000060: a29e f7bd 0534 bf3d bc0f b23d 8e6b a8bd
00000070: 61fb f43d cc93 29bd c0c8 063d c110 0d3e
00000080: dd11 82be 60b6 3d3d 3ef6 88be 6a04 8dbd
00000090: a13f 9abe 1b20 ca3c 99e0 503e 50b0 853b
000000a0: e1f0 493d e1b6 663c 4339 873c 6ab6 e73d
000000b0: 6f61 3f3e 5bc2 aa3e 3a4f c03d d3cd c63e
000000c0: 94ad 3e3d a931 723e 49d6 783e 2768 83be
000000d0: 7eea 843e a187 abbc 0c44 a73e f80d 203e
000000e0: c294 d1be 4e67 903e afe8 903e 6df5 953c
000000f0: a6df debe 3267 053e 61fd cb3d d5af c63e
00000100: 5152 b0bc fafb bfbd 0082 d63d f888 59be
00000110: c4db c4bd 61ed 62be dac7 abbb df97 fd3e
00000120: ef9c 8fbe 61c9 6b3e 1fba a1be bd1f df3c
00000130: d7d8 923e 6a70 9dbe edf3 7cbe 3bd7 99bd
00000140: 6a37 c4bd a1a3 bf3d ab40 0ebe e344 073e
00000150: 86df 1fbe 4c8f 463e 736d 763c 996e 1fbc
00000160: d1c0 b03d a7b5 9e3d 2cb8 b3bd 9604 1d3e
00000170: 9506 c73c 93b3 27bd 1b97 c93c 4cbe 19bd
00000180: b18e b93d e2dc bb3c 56da 1a3d 8318 10be
00000190: 6f61 0f3e c0fa 3c3d 5c63 5f3c fa35 fa3c
000001a0: 87a5 ea3d 96b8 8dbb 7484 a03d 1db5 873d
000001b0: 0bf2 583c 5085 33be ac03 aa3d 8cfe a1be
000001c0: 9529 42bd 7ac1 f53b 09c8 083e 56a1 143e
000001d0: 16b0 293e 2bb0 20be 8225 283d f750 8cbe
000001e0: 0bc7 ed3d 81a5 9fbe 1974 a43e 0a8c b2be
000001f0: bf48 833d bb8c 523d 18bf d53d 7bfc b83d
00000200: 3367 863e a3eb 863e 0e4d c83d 2a72 d5bd
00000210: a9c2 b1bd 92e0 b63d 8965 053e f816 2cbb
00000220: 2c99 80bc a0d3 6bbc 8e1d 353d caa3 1ebe
00000230: 583e 993d a508 d3bb 8e03 073d 7ec2 46be
00000240: f692 d5bd 260b ecbd c5b7 b0bd 3180 813c
00000250: 6401 2ebd 9803 d3bd 499c 3d3c 3729 d0bd
00000260: 6d03 033c aedc 743d ab7c 8abd 39db 9e3d
00000270: 705d 763e a533 d3bd 886d c7be 9236 ed3d
00000280: 8daa 02bd 217f 05be e9d4 0f3e 3176 fa3d
00000290: 822d 79be 255c 47be 98c1 583d 4716 2b3d
000002a0: e3a7 8cbd 8a33 773e adf6 11be d824 64bc
000002b0: 7b94 2cbd 07a9 d0bc 3aff b1be d706 dcbd
000002c0: a483 f43d 98c7 03bd d75a b93d b713 3c3e
000002d0: 5cc4 513e 4786 c53d 6ec2 9d3e 2713 c63e
000002e0: 08a6 5dbd 2a6c 1a3b 08bb d13d 6a8a 7dbd
000002f0: 2c7c e3bd 62ed 58be 572d b33d d0df fa3d
00000300: 2920 41be 6b1f 043e 2de6 2cbe 1cfb c0bd
00000310: 655d 7dbe feba 173e 03a1 4c3e 95e3 ae3e
00000320: 68a8 a2be f0fc abbe 529b edbd 7a01 b9bd
00000330: e13a b8bd 18d5 29bd 20c9 473d d633 4abe
00000340: 743e 3c3d 02d4 4e3d 8fd2 2ebe 4456 293e
00000350: 1c36 1bbe d64a 2abe ee1b 50be 0117 4ebd
00000360: 83cf bdbd d0cf ae3e ecf3 eabe 967c fcbc
00000370: 6ad1 da3d 5f3f 4a3e 3bd4 2cbd 2d1c 70be
00000380: f286 48bd 3621 2bbd c876 adbd 65db 8fbe
00000390: efcf 72bd fa90 84be 3367 4cbc 47a4 b73d
000003a0: 0a4f 64bd d880 f93d 6a55 a63e e0c4 1e3e
000003b0: ba4b 243e f09a c7be 929d 4fbe 2813 593d
000003c0: 920d a53d 4930 643d 0820 243e 4eb5 713e
000003d0: 591e d7bc 8a24 303d f1fb a93d ba61 8bbe
000003e0: 7d26 c7bd 51af 3d3d 21c2 443d d7d8 afbd
000003f0: 1b58 78be 8b64 b1bb d643 a1be 6c4b de3d

bias f4 [20]
0.0990411 0.16427155 0.16868915 -0.068167314 -0.01393916 0.16076879 0.26839474 0.030557187
-0.12843448 -0.07906907 -0.18379226 -0.022305962 0.024644068 -0.0071688234 -0.1487926 0.068389915
-0.1185042 0.02922886 -0.03123924 0.18767421
00000000: 0fd6 ca3d cd36 283e d9bc 2c3e 4e9b 8bbd
00000010: 1361 64bc 93a0 243e 096b 893e 1153 fa3c
00000020: 5484 03be f7ee a1bd 0a34 3cbe feba b6bc
00000030: 5be2 c93c 73e8 eabb 165d 18be 0310 8c3d
00000040: 54b2 f2bd 5d71 ef3c 6fe9 ffbc ab2d 403e

weight f4 [20, 20]
0.3038538 -0.060420137 -0.064169854 -0.18027864 0.2499907 -0.4084464 0.045834444 -0.091739625
-0.27595657 -0.18902329 0.44728398 0.001946502 -0.28803444 -0.06682901 0.1180392 -0.4585878
-0.04638959 -0.37066212 0.07719351 -0.010639918 -0.23430584 -0.030970426 -0.07358872 -0.092516966
-0.269148 -0.022281202 -0.09386566 0.00308611 0.12771204 0.50219357 -0.1738121 0.012204044
0.30356404 -0.088794895 -0.06720726 0.17534998 0.5240428 0.29289788 0.16932137 -0.040327862
-0.13288514 -0.1098362 -0.26465833 0.19476166 -0.2067565 -0.20435162 0.09757359 0.041524652
0.22123599 0.1152244 0.044194065 -0.108018585 -0.12347696 0.008101869 0.28295922 -0.017769301
-0.24235006 0.053269513 -0.116852686 0.035099443 0.092004366 -0.37353298 -0.06427168 0.06893637
-0.16666973 -0.0044618417 -0.085655876 -0.21853267 -0.006954585 -0.13406652 -0.4637213 0.4553281
-0.3180703 0.5721472 0.39317936 -0.05147398 0.3326108 -0.167725 0.5481674 0.0892255
-0.110766664 0.054844074 -0.011120066 -0.39013937 0.01431635 0.14158148 -0.0932618 0.11268667
-0.25192615 0.12858978 0.26451123 -0.41443273 0.011260227 -0.26752537 -0.03028047 -0.05206692
-0.318313 0.015876846 -0.20594049 0.12158216 -0.19560191 0.2634153 -0.07383477 0.13171387
-0.24107936 -0.4647939 0.103777416 0.037615884 -0.0474897 0.2052641 0.24680807 -0.3935766
-0.25724778 -0.14383253 0.07567528 0.2730936 -0.045071535 -0.021041516 -0.17887421 0.24460652
-0.17470898 0.11643408 -0.0004919297 0.311306 -0.43548727 -0.22497053 -0.26250517 -0.20918193
0.10759752 -0.15458895 0.4220432 -0.36692694 -0.12440831 -0.2283693 -0.09040569 -0.3531481
-0.009881219 0.13805053 -0.14243628 0.04429263 0.29458022 -0.072627276 -0.063017905 0.2873503
0.13422564 0.1637242 0.14548744 -0.22297525 -0.25255316 -0.0475405 0.15857989 0.05529845
-0.10648743 -0.14215873 0.14434719 -0.094613425 0.10647122 -0.23495308 0.07328456 -0.11835182
0.042647123 0.17113476 0.100074194 0.025493087 -0.074185684 -0.015022792 -0.26000905 -0.23212561
-0.3130141 0.1478901 -0.07376701 -0.11428562 0.2408233 0.048885435 0.32062054 -0.05637139
0.40805542 0.023479242 0.113799214 0.44267303 -0.086132385 0.17466424 0.2008799 0.021674043
0.0960307 0.006793633 -0.1382536 -0.1608499 -0.15696621 -0.25388044 0.025649756 0.23625433
0.10083725 0.058681075 0.0015926908 -0.12970684 0.3052136 -0.34631968 -0.17380387 0.037253875
-0.6040831 -0.1103632 0.08413822 0.028191589 0.016417496 -0.21900241 -0.040675297 -0.22763966
0.0045964993 0.34801814 0.08436829 0.3619708 -0.17588937 -0.072524406 -0.23253942 0.15875699
0.25136954 0.22300774 0.20547248 -0.040910013 -0.030279992 -0.00040535978 -0.07930632 -0.1897184
0.069253884 -0.08369746 -0.008611933 0.07591181 0.15893078 -0.015464817 -0.072254226 -0.16358595
0.18141763 -0.3145679 -0.06813746 0.16541892 -0.22654086 -0.3718292 -0.13891885 0.18531096
0.24371552 -0.52152884 0.13077895 -0.09731475 0.1707594 -0.083398424 -0.23249918 0.007431242
-0.1211729 0.25849506 0.30695316 -0.33034134 -0.5180153 0.11600537 -0.3732692 0.121852994
00000000: ba92 9b3e 1b7b 77bd 7c6b 83bd f79a 38be
00000010: 90fd 7f3e e31f d1be e6bc 3b3d fce1 bbbd
00000020: 2e4a 8dbe 528f 41be 6802 e53e c521 ff3a
00000030: 4079 93be a6dd 88bd 89be f13d 05cc eabe
00000040: 0303 3ebd 6dc7 bdbe a217 9e3d 0d53 2ebc
00000050: dfed 6fbe b1b5 fdbc afb5 96bd 8979 bdbd
00000060: c4cd 89be 1187 b6bc a43c c0bd 5640 4a3b
00000070: f2c6 023e c28f 003f cdfb 31be 78f3 473c
00000080: bf6c 9b3e 19da b5bd f6a3 89bd f28e 333e
00000090: ab27 063f b6f6 953e 9562 2d3e d42e 25bd
000000a0: 0b13 08be cdf1 e0bd 4c81 87be 9a6f 473e
000000b0: fab7 53be 8d41 51be aad4 c73d c115 2a3d
000000c0: b08b 623e c5fa eb3d d604 353d d938 ddbd
000000d0: 7de1 fcbd b4bd 043c 08e0 903e ed90 91bc
000000e0: 9d2a 78be 2231 5a3d 7650 efbd 6fc4 0f3d
000000f0: c96c bc3d b73f bfbe dfa0 83bd 832e 8d3d
00000100: 78ab 2abe a434 92bb 596c afbd 07c7 5fbe
00000110: 4ae3 e3bb bc48 09be e16c edbe c420 e93e
00000120: 1cda a2be 3d78 123f ce4e c93e 61d6 52bd
00000130: f64b aa3e 1ac0 2bbe b354 0c3f dcbb b63d
00000140: a2d9 e2bd 2ea4 603d f030 36bc 59c0 c7be
00000150: 208f 6a3c bcfa 103e 0b00 bfbd 45c8 e63d
00000160: 77fc 80be 0aad 033e 046e 873e 8730 d4be
00000170: d17c 383c 16f9 88be c00e f8bc 1f44 55bd
00000180: ecf9 a2be 2910 823c 10e2 52be 1100 f93d
00000190: de4b 48be 5fde 863e af36 97bd 00e0 063e
000001a0: 82dd 76be 77f9 edbe 4189 d43d 1d13 1a3d
000001b0: 8f84 42bd c130 523e 41bb 7c3e df82 c9be
000001c0: fbb5 83be d648 13be a4fb 9a3d edd2 8b3e
000001d0: ee9c 38bd 425f acbc cd2a 37be 227a 7a3e
000001e0: e9e6 32be fe74 ee3d d8f4 00ba 8063 9f3e
000001f0: 30f8 debe ad5e 66be 1467 86be ca33 56be
00000200: 175c dc3d 914c 1ebe 0c16 d83e d9dd bbbe
00000210: c9c9 febd a4d9 69be 9e26 b9bd d4cf b4be
00000220: d6e4 21bc 1e5d 0d3e d1da 11be 306c 353d
00000230: 38d3 963e 9cbd 94bd 880f 81bd 941f 933e
00000240: 7272 093e 51a7 273e a9fa 143e a053 64be
00000250: a64e 81be d4b9 42bd c462 223e a180 623d
00000260: 1516 dabd 0f92 11be c0cf 133e afc4 c1bd
00000270: 950d da3d 8a97 70be 3716 963d 7062 f2bd
00000280: c0ae 2e3d f33d 2f3e b3f3 cc3d e1d6 d03c
00000290: aaee 97bd 2822 76bc e81f 85be 56b2 6dbe
000002a0: 6243 a0be 8170 173e 2813 97bd 940e eabd
000002b0: 629a 763e 183c 483d 6028 a43e b0e5 66bd
000002c0: a4ec d03e 8a57 c03c 900f e93d 0aa6 e23e
000002d0: 2d66 b0bd 2fdb 323e 76b3 4d3e c38d b13c
000002e0: beab c43d 209d de3b 5a92 0dbe d6b5 24be
000002f0: c0bb 20be 9efc 81be 701f d23c a8ec 713e
00000300: c383 ce3d 915b 703d d6c1 d03a dfd1 04be
00000310: f544 9c3e d050 b1be a4f9 31be 8597 183d
00000320: 31a5 1abf 1a06 e2bd a950 ac3d 0cf2 e63c
00000330: fc7d 863c 2b42 60be 249b 26bd 5f1a 69be
00000340: 3b9e 963b 6f2f b23e 48c9 ac3d 3d54 b93e
00000350: 581c 34be ad87 94bd d01e 6ebe 3191 223e
00000360: 82b3 803e 245c 643e 6167 523e 4291 27bd
00000370: bf0d f8bc 7886 d4b9 5a6b a2bd 8a45 42be
00000380: fbd4 8d3d 9369 abbd 1119 0dbc a777 9b3d
00000390: c0be 223e 2560 7dbc 06fa 93bd 1383 27be
000003a0: 8bc5 393e 0b0f a1be a78b 8bbd 9463 293e
000003b0: 54fa 67be 6660 bebe be40 0ebe 28c2 3d3e
000003c0: 9090 793e ea82 05bf ebea 053e f54c c7bd
000003d0: 8ddb 2e3e cbcc aabd 4414 6ebe c781 f33b
000003e0: 7f29 f8bd 7759 843e f728 9d3e 8022 a9be
000003f0: a79c 04bf 3994 ed3d 241d bfbe 108e f93d

bias f4 [20]
-0.222624 0.07735809 -0.25927532 0.14748515 -0.07106105 -0.2485295 -0.03116392 -0.3231771
-0.28311726 -0.030845037 -0.0890647 -0.065413974 -0.1143893 -0.15256308 0.15630439 0.008940418
0.070075266 -0.08224093 -0.18423402 -0.022868104
00000000: 8cf7 63be eb6d 9e3d bcbf 84be 5906 173e
00000010: 7588 91bd 847e 7ebe 7a4b ffbc 7877 a5be
00000020: bff4 90be bbae fcbc 8e67 b6bd c3f7 85bd
00000030: f044 eabd 7f39 1cbe 420e 203e d57a 123c
00000040: 9f83 8f3d ef6d a8bd d8a7 3cbe e455 bbbc
