P5/h20-bs64-transformer/encoder.pt (torch, 15451 bytes, 5 tensors)

weight f4 [29, 20]
0	0xbe0fb41d	-0.14033552
1	0x3e5e9514	0.21736556
2	0x3f85f2ac	1.0464683
3	0x3f8a80ac	1.0820518
4	0xbfb37317	-1.4019498
5	0x3f9129b9	1.1340858
6	0xbd89d074	-0.067292124
7	0x3c41a5e2	0.011819335
8	0x3f95bb5a	1.16978
9	0x3e8c59f6	0.27412385
10	0x3e0a3856	0.13498053
11	0xbef93b01	-0.4867783
12	0xbdc38f50	-0.09548819
13	0x3b35cea9	0.0027741587
14	0x3e74344c	0.23848075
15	0xbfc573f4	-1.5426011
16	0x3f41e55c	0.757406
17	0xbe81ddf1	-0.2536464
18	0xbf9fb537	-1.2477177
19	0x3f8a06dd	1.0783345
20	0x3fec485d	1.8459584
21	0xbeb9d47e	-0.3629493
22	0x3f65e63d	0.8980444
23	0x3f1b68a1	0.60706526
24	0xbe007eae	-0.12548324
25	0x3ee745b4	0.45170367
26	0xbe60fbf5	-0.21971114
27	0x3f54ed7b	0.83174866
28	0x3f606559	0.87654644
29	0xbe55eaeb	-0.20890395
30	0x3fd811d2	1.6880438
31	0x3fefb294	1.8726373
32	0xbf0772e4	-0.52909684
33	0x3f8581b9	1.0430213
34	0x3e7f54c0	0.24934673
35	0x3f430037	0.761722
36	0xbf5c6220	-0.86087227
37	0x3e42cc04	0.19023138
38	0xbf1c20cd	-0.6098755
39	0xc0014431	-2.019787
40	0x3e9cafd9	0.3060291
41	0xbff488ed	-1.9104286
42	0xbd2f77e8	-0.04283896
43	0xbfb39505	-1.4029852
44	0xbd6ff713	-0.058585238
45	0xbe3fabc0	-0.18717861
46	0xbd196b35	-0.037455756
47	0x3f634793	0.8878109
48	0xbf35ae78	-0.70969343
49	0x3f08c539	0.5342594
50	0xbd11c84c	-0.03559141
51	0xbd1dc1a9	-0.038514767
52	0x3e27f8c9	0.16403498
53	0xbf2f00e0	-0.6836071
54	0xbef31ca4	-0.4748279
55	0xbf534dd6	-0.82540643
56	0x3ea4df37	0.3220155
57	0xbf4498ff	-0.76795954
58	0xbf963971	-1.173628
59	0x3eb0fc69	0.34567574
60	0x3e149af2	0.14512232
61	0xbf8818f2	-1.0632613
62	0xbe035be1	-0.12828018
63	0xbf44259a	-0.76619875
64	0x3ea5bf4d	0.32372513
65	0x3e13a034	0.14416581
66	0xbfb7653a	-1.4327767
67	0x3f085962	0.5326139
68	0xbf83efa2	-1.0307505
69	0xbee68ab6	-0.45027703
70	0xbe96cc4e	-0.29452747
71	0x3f372b47	0.7155041
72	0x3f7541f2	0.9580375
73	0x3f269d6d	0.6508396
74	0x3fa4bd87	1.2870339
75	0x3eb31b74	0.34981883
76	0x3f4a9823	0.7913839
77	0x3ef16a48	0.471514
78	0xbf0e69ee	-0.55630386
79	0x3edca929	0.4309781
80	0x3ea94e10	0.3306737
81	0x3ecd1466	0.40054625
82	0xc02b36be	-2.6752162
83	0x3f02e6f2	0.51133645
84	0x3f6c5eab	0.9233195
85	0x3f566059	0.83740765
86	0xbf04313b	-0.5163762
87	0xbe964436	-0.29348916
88	0x3fd080a3	1.6289257
89	0x3f4678ac	0.7752788
90	0x3dc712d2	0.097203866
91	0x3fa1980d	1.2624527
92	0xbe9f3bc0	-0.31100273
93	0xbecd972a	-0.40154392
94	0x3fa679cf	1.3005923
95	0xbf4a9bf3	-0.7914421
96	0xbeb7b2be	-0.35878557
97	0xbea1ab65	-0.31576076
98	0x3f2ba731	0.6705199
99	0xbee202c9	-0.4414275
100	0x3f4fadd8	0.8112464
101	0x3d8dd8c9	0.06926114
102	0xbf89ee5c	-1.0775867
103	0xbe46211c	-0.19348568
104	0xbecb2d15	-0.39682832
105	0x3f9ec6ff	1.2404479
106	0x3edea3b0	0.4348426
107	0xbf3dcfc5	-0.74145156
108	0xbfa453ef	-1.2838115
109	0x3e7079f2	0.23484018
110	0xbfa58612	-1.293154
111	0x3e1b3552	0.15157059
112	0x3f0acd3d	0.5421942
113	0x3e9527cc	0.29131925
114	0xbe6de60e	-0.2323229
115	0xbea3fad3	-0.320273
116	0xbf5b197a	-0.8558575
117	0x3e22a87f	0.15884589
118	0xbe292cb3	-0.16520958
119	0xbe25a17e	-0.16174886
120	0x3d3de583	0.046361458
121	0xbfd74d46	-1.6820457
122	0xbf3c8e6b	-0.7365481
123	0xbfad84c6	-1.3556144
124	0x3e3806f8	0.17971408
125	0x3fa75f40	1.3075943
126	0xbcd328e2	-0.02577633
127	0xbf6a57f9	-0.91540486
128	0x3f2e64b0	0.68122387
129	0xbfbc5280	-1.4712677
130	0xbcc1d10c	-0.023659252
131	0x3f99caa8	1.2014971
132	0xbf10575e	-0.5638331
133	0xbe980623	-0.29692182
134	0x3eeffa72	0.46870762
135	0x3e66f010	0.22552514
136	0x3e9baa3b	0.30403313
137	0x3f28244c	0.65680385
138	0xbf12a54f	-0.5728349
139	0x3f4c1b56	0.7972921
140	0xbf6ba0f0	-0.92042446
141	0xbf1f2944	-0.6217234
142	0x3e50157f	0.203207
143	0xbf960da8	-1.1722918
144	0xbf8355cb	-1.0260557
145	0xbf170a24	-0.5899985
146	0x3f180254	0.5937855
147	0xbe49e33b	-0.19715588
148	0xbd38ff16	-0.045165144
149	0x3ed1c0b4	0.40967333
150	0x3e872081	0.26391986
151	0x3ed4cb28	0.41561246
152	0x3f428e9f	0.7599887
153	0xbf4a7983	-0.7909166
154	0x3fc1f3f4	1.5152574
155	0xbe5857ec	-0.2112729
156	0xbe675e68	-0.22594607
157	0x3e01904a	0.12652698
158	0x3fb329a0	1.3997078
159	0xbf1783d3	-0.5918552
160	0xbe98e2b7	-0.2986047
161	0xbeb17f5c	-0.3466748
162	0x3e89fba9	0.26949814
163	0xbf9707db	-1.1799272
164	0x3f8523fb	1.0401605
165	0x3e48fc11	0.19627406
166	0x3f21bd60	0.6317959
167	0x3f452831	0.7701445
168	0x3f927716	1.1442592
169	0xbf880f4f	-1.0629672
170	0xbf04b646	-0.5184063
171	0xbfc1833a	-1.5118172
172	0xbe2ec8be	-0.17068765
173	0x3f8c4ef1	1.0961591
174	0x3eac455f	0.33646676
175	0x3f47ed3f	0.78096384
176	0xbd9ac219	-0.075565524
177	0x3f0b270c	0.54356456
178	0xbef16afe	-0.4715194
179	0xbeccd13b	-0.4000338
180	0x3d0e5473	0.034748506
181	0xbc95ea1f	-0.018300114
182	0xbf1ae3a6	-0.60503614
183	0x3dc5bc8b	0.09655102
184	0xbe8c7eec	-0.27440584
185	0xbc3957d2	-0.011312442
186	0x3fb5ef71	1.4213697
187	0xbf49a073	-0.7876045
188	0xbf0f3e46	-0.55954397
189	0x3fdfc7d0	1.7482853
190	0xbed26710	-0.41094255
191	0xbe8eb5cf	-0.27873084
192	0x3c8476db	0.016169956
193	0x3de72e04	0.11288074
194	0x3e8c429d	0.27394572
195	0xbec1f053	-0.37878665
196	0xbf5f221c	-0.8716142
197	0x3f46ae3e	0.7760962
198	0xbf429622	-0.76010334
199	0xbf4a1364	-0.7893584
200	0xbf55d733	-0.8353149
201	0xbf192ea9	-0.5983682
202	0xbf8412c0	-1.0318222
203	0xbf1b650a	-0.6070105
204	0x3cc9a420	0.024614394
205	0x3f9a3ffe	1.2050779
206	0x3f478797	0.7794127
207	0x3eba7f53	0.36425266
208	0x3f1e0939	0.6173282
209	0xc020e692	-2.514073
210	0xbbea4f5b	-0.007150573
211	0x3dd77233	0.10519829
212	0x3f9e6b66	1.2376525
213	0xbf3f8576	-0.7481302
214	0x3e5be338	0.21473396
215	0x3f1d2f4d	0.614003
216	0xbf83d5f4	-1.0299668
217	0xbf17dd27	-0.59321827
218	0xbf2f1e48	-0.6840558
219	0xbebc858b	-0.36820635
220	0x3f368770	0.7130041
221	0xbf8211d4	-1.0161691
222	0x3f7a06a6	0.97666395
223	0xc01a933b	-2.4152362
224	0xbd9c91a4	-0.07644966
225	0x3f1d945d	0.6155451
226	0xbd378a6f	-0.044809755
227	0xbefc8975	-0.4932362
228	0xbe69f3b7	-0.22846876
229	0xbfb7138b	-1.4302839
230	0xbf5b43cc	-0.85650325
231	0x3fdd0824	1.7268109
232	0x3ecaa075	0.39575544
233	0xbeddb3ff	-0.4330139
234	0x3f14efba	0.58178294
235	0x3f20626e	0.6265019
236	0xbe2131b1	-0.15741612
237	0xbf84e3ea	-1.0382054
238	0xc016e11e	-2.35749
239	0x3e9b0363	0.3027602
240	0x3f7c7b83	0.98625964
241	0x3f7871d5	0.97048694
242	0x3ec1720b	0.3778232
243	0xbe184fa1	-0.14874126
244	0xbd8a2bd9	-0.067466445
245	0xbe7e4067	-0.24829255
246	0x3f9d64dd	1.2296406
247	0x3f21355c	0.62972045
248	0x3f08af57	0.5339255
249	0x3f352dd1	0.70773035
250	0x3eaeecd0	0.3416505
251	0xbee50c4f	-0.44735953
252	0x3f8f26ae	1.1183679
253	0xbf05c37a	-0.522514
254	0x3ec953ed	0.39321843
255	0x3f1726fe	0.5904387

weight_ih f4 [60, 20]
0	0x3f076762	0.52892125
1	0x3eb62268	0.35573125
2	0xbebf31bb	-0.3734263
3	0x3ecc2995	0.39875475
4	0xbe9c7140	-0.30555153
5	0x3f1e6dd8	0.6188636
6	0xbf092b82	-0.5358201
7	0x3d88c24a	0.06677683
8	0x3eb1e290	0.34743166
9	0x3eb48145	0.35254875
10	0x3e9dcb7a	0.30819303
11	0x3e2a459d	0.16628118
12	0xbe01fff7	-0.12695299
13	0xbd22682d	-0.03965013
14	0xbf49072c	-0.7852657
15	0x3f0d8a0d	0.55288774
16	0x3f090dc1	0.5353661
17	0xbf472dc6	-0.7780422
18	0xbecd78ff	-0.40131375
19	0xbef2082e	-0.47271866
20	0xbce35f7c	-0.027755491
21	0xbf0ae762	-0.5425931
22	0xbe82d66a	-0.2555421
23	0xbe985cab	-0.297582
24	0x3eafe2f8	0.3435285
25	0xbe7bffe8	-0.24609339
26	0xbe7aa5e9	-0.24477352
27	0xbcc20777	-0.0236852
28	0x3ea06847	0.31329557
29	0xbe8c7135	-0.2743012
30	0xbd69240e	-0.05691915
31	0xbc973749	-0.01845898
32	0xbeee8776	-0.46587723
33	0xbf07879f	-0.52941316
34	0x3f7e967c	0.9944837
35	0xbebe560b	-0.3717502
36	0xbee010c3	-0.43762788
37	0xbf2a78d4	-0.6659062
38	0xbea1892a	-0.3154996
39	0x3f30686a	0.68909323
40	0xbd896e01	-0.06710435
41	0xbd9b631f	-0.07587265
42	0x3d998ac3	0.0749717
43	0x3e99515b	0.29944882
44	0xbc7bb1a0	-0.015362173
45	0x3db7af8e	0.08969031
46	0x3e5b3c48	0.21409714
47	0x3e70c4cb	0.2351257
48	0xbed58942	-0.41706282
49	0xbda006fc	-0.07813832
50	0x3e452a39	0.19254388
51	0x3e1c0aac	0.15238446
52	0x3e0f2828	0.13980162
53	0xbd427149	-0.04747132
54	0x3dbfdb0b	0.09367951
55	0xbec5e0e6	-0.38648146
56	0xbeaca3b1	-0.33718637
57	0x3e827a0a	0.25483733
58	0xbe04b077	-0.12957941
59	0x3ed1e371	0.40993837
60	0xbe38af84	-0.18035704
61	0xbd993588	-0.074809134
62	0x3e532d77	0.20622812
63	0x3e865baa	0.2624181
64	0xbf1d6074	-0.614753
65	0x3f0a8d99	0.5412231
66	0x3dbf26f4	0.093336016
67	0xbcab96a8	-0.020945862
68	0x3e2b812d	0.16748495
69	0xbeeea1c4	-0.46607792
70	0xbe2b511a	-0.16730157
71	0x3d2e98b0	0.042626083
72	0xbeca08d7	-0.3945987
73	0x3f428cb5	0.7599595
74	0x3c244a48	0.010027476
75	0xbef5b233	-0.47987518
76	0x3ea0cef8	0.31407905
77	0x3f4f1613	0.8089306
78	0xbdde3b68	-0.108511746
79	0x3e5be384	0.21473509
80	0xbed17d94	-0.4091612
81	0x3e12c44a	0.14332691
82	0x3e99c8db	0.30036053
83	0x3e157b2c	0.14597768
84	0x3e88f20f	0.26747176
85	0x3e3138bb	0.17306797
86	0xbef5a7ab	-0.47979483
87	0xbdcfb773	-0.10142412
88	0xbf24c5cd	-0.6436432
89	0xbe23534c	-0.15949744
90	0xbee80c0c	-0.4532169
91	0xbed3066a	-0.4121583
92	0xbe90855c	-0.28226745
93	0x3eb4ad4e	0.3528847
94	0xbf13e917	-0.5777754
95	0x3ec69ead	0.38792935
96	0xbeecbea5	-0.462392
97	0x3e6cf640	0.23140812
98	0xbee708d5	-0.45123926
99	0x3eb9e20d	0.36305276
100	0x3e109812	0.1412051
101	0xbf0b86cf	-0.54502577
102	0x3e06e7ad	0.13174315
103	0x3e980315	0.2968985
104	0xbf1c2407	-0.60992473
105	0x3ef59d83	0.47971734
106	0x3cf770c7	0.030205144
107	0xbeae80c9	-0.3408263
108	0x3c487f0d	0.0122373225
109	0xbd774a57	-0.06037363
110	0x3ed8b36a	0.42324382
111	0x3f46964b	0.7757308
112	0xbe169ed9	-0.14709033
113	0x3f3fac32	0.74872124
114	0xbe5629c2	-0.20914367
115	0xbed1723a	-0.4090746
116	0xbee2a053	-0.44262943
117	0x3f0d7d40	0.5526924
118	0xbeb159f8	-0.34638953
119	0xbdb992b7	-0.09061187
120	0xbe73e313	-0.2381709
121	0xbee05f49	-0.43822697
122	0xbd8448db	-0.064592086
123	0xbe0ae01e	-0.13562056
124	0xbe76e9be	-0.24112603
125	0x3ec72a07	0.38899252
126	0x3e7eb38d	0.2487318
127	0xbf26fa3e	-0.6522559
128	0xbdb2aee4	-0.08724764
129	0x3f0e255e	0.5552577
130	0xbf41abf7	-0.7565302
131	0xbe235103	-0.15948872
132	0x3eaf2a06	0.3421175
133	0xbeb59f2d	-0.35473004
134	0xbe78a74e	-0.24282572
135	0xbe8f6c10	-0.28012133
136	0x3d1b4fa2	0.03791774
137	0x3ecfdafd	0.40596762
138	0x3d5df722	0.054190762
139	0x3e4caa9c	0.19986957
140	0x3f0591f8	0.52175856
141	0xbccb1c0a	-0.024793644
142	0xbd50ef8b	-0.051009696
143	0x3d1c811e	0.038209073
144	0x3df4abac	0.11946806
145	0x3e03e718	0.12881124
146	0x3f31683c	0.69299674
147	0xbeb70d63	-0.357524
148	0xbeffcd47	-0.49961302
149	0xbdd1d730	-0.10246122
150	0xbe12e4cc	-0.14345092
151	0x3ed95b79	0.424526
152	0xbdce39c9	-0.100696154
153	0x3eefbbbe	0.46822923
154	0xbf002bae	-0.5006665
155	0x3e4863f4	0.19569379
156	0xbf1a53ac	-0.60283923
157	0x3f5a5e2f	0.8529996
158	0x3e3d2ec2	0.18474868
159	0x3df3796c	0.11888394
160	0xbea32b86	-0.31869143
161	0x3eec242f	0.46121356
162	0xbec70b76	-0.38875932
163	0xbb98ea3c	-0.004666595
164	0xbf0b8fff	-0.54516596
165	0xbc845984	-0.016155966
166	0xbe8ee644	-0.27910054
167	0xbf37af46	-0.7175182
168	0x3c20cbab	0.009814183
169	0xbeb1aad0	-0.34700632
170	0x3ed47381	0.41494372
171	0xbe22c091	-0.15893771
172	0xbd859ebb	-0.06524416
173	0xbe9e9f88	-0.30981088
174	0x3e6d2600	0.23159027
175	0x3e0f296b	0.13980643
176	0x3ced97f2	0.029003117
177	0x3f20e555	0.6284993
178	0x3eb4540d	0.35220376
179	0x3e5f6a76	0.21817955
180	0xbf58211f	-0.8442554
181	0xbf281767	-0.6566071
182	0x3f7d724c	0.9900253
183	0xbe21e1b0	-0.15808749
184	0x3e5737d2	0.21017388
185	0xbece2708	-0.40264153
186	0xbe8cef8e	-0.27526516
187	0x3f197727	0.5994744
188	0xbe8be4f3	-0.27323112
189	0xbea1edcb	-0.31626734
190	0x3ee397e6	0.44451827
191	0x3f2869a1	0.65786177
192	0x3db15a6b	0.08659824
193	0x3d9c580a	0.076339796
194	0x3ea18e1c	0.31553733
195	0x3f05dc3d	0.5228918
196	0xbea5a14d	-0.32349625
197	0x3e121198	0.14264524
198	0x3f0e1587	0.555016
199	0xbf13e6fd	-0.57774335
200	0x3d11ac5d	0.03556477
201	0x3e1d1b70	0.15342498
202	0xbe8f2ce6	-0.27963942
203	0x3d37544b	0.044758122
204	0x3e06b513	0.13155012
205	0x3f03b72b	0.5145137
206	0x3e956a04	0.29182446
207	0xbd50ed11	-0.051007334
208	0x3e8be990	0.27326632
209	0x3ea483fa	0.3213194
210	0xbe37b174	-0.17938787
211	0x3df6e64f	0.12055647
212	0xbde6d2f4	-0.11270705
213	0x3edbd1bf	0.4293346
214	0x3dff888c	0.12477216
215	0x3bdbb09c	0.006704403
216	0xbdbc2d2f	-0.091883056
217	0x3e9b0442	0.30276686
218	0xbed81875	-0.4220616
219	0xbd0fc622	-0.035101064
220	0xbf3dbd6d	-0.74117166
221	0xbed19a84	-0.409382
222	0x3f0684e9	0.52546555
223	0x3f575f76	0.84130037
224	0x3d252483	0.040318023
225	0x3eb37696	0.3505141
226	0xbf021424	-0.5081198
227	0x3ef3b361	0.47597793
228	0xbd8b8621	-0.068126924
229	0x3ef7d564	0.48404992
230	0x3de228a8	0.11042911
231	0x3dd4d578	0.103922784
232	0x3e0f6f51	0.14007308
233	0xbe238509	-0.15968718
234	0xbeb54972	-0.35407597
235	0xbe0ee83a	-0.13955775
236	0xbe2ab491	-0.16670443
237	0xbf656691	-0.8960963
238	0xbf2c6f86	-0.6735767
239	0xbf260ef9	-0.64866596
240	0x3da4f695	0.08054844
241	0xbeac1b1d	-0.33614436
242	0x3e878952	0.26471955
243	0xbf01838e	-0.5059136
244	0xbcdd970f	-0.02704957
245	0x3edfae7b	0.43687806
246	0x3df4a4e9	0.119455166
247	0xbeaa29d0	-0.33235025
248	0xbc400d0b	-0.01172186
249	0xbe2117ef	-0.15731786
250	0x3e95b112	0.29236656
251	0xbe861c33	-0.2619339
252	0x3e34889b	0.17630236
253	0xbce328ff	-0.02772951
254	0xbdc0a607	-0.09406667
255	0x3ee8abfa	0.45443708

weight_hh f4 [60, 20]
0	0x3da735a0	0.08164525
1	0xbe2d9a04	-0.16953284
2	0xbf2228a5	-0.6334327
3	0xbe7500bd	-0.23926063
4	0x3e4ba8a6	0.19888553
5	0x3eab1d26	0.33420676
6	0x3e2c5841	0.16830541
7	0x3e585f0b	0.21130006
8	0xbed14484	-0.40872586
9	0xbe0b8c26	-0.13627681
10	0x3e4ae2fe	0.19813153
11	0xbf4a0355	-0.78911334
12	0xbe35694d	-0.1771595
13	0x3dba12bd	0.09085605
14	0x3ecee2cd	0.4040741
15	0xbec535a9	-0.38517502
16	0x3ec0f84a	0.3768943
17	0xbd2140ad	-0.03936832
18	0x3e893c04	0.268036
19	0x3e272e9b	0.16326372
20	0x3f3f13eb	0.7463977
21	0xbfb58ab2	-1.4182951
22	0xbd80a03b	-0.062805615
23	0xbf3cc417	-0.7373671
24	0xbe80c93e	-0.25153536
25	0xbec22c3e	-0.3792438
26	0x3dbe3a65	0.092884816
27	0x3f9153ba	1.1353676
28	0x3f1c3e2e	0.6103238
29	0x3eac6982	0.33674246
30	0xbf46128e	-0.7737206
31	0xbf69d834	-0.91345525
32	0x3f63fbcb	0.8905608
33	0x3efcae2e	0.4935164
34	0x3f048300	0.5176239
35	0xbecd38aa	-0.40082294
36	0x3ee9241b	0.4553536
37	0xc004d826	-2.0756927
38	0x3e353509	0.17696013
39	0xbdaa7d76	-0.08324711
40	0xbf68db24	-0.9095938
41	0xbe38ff90	-0.1806624
42	0x3ea7594e	0.32685322
43	0xbebb9bab	-0.36642203
44	0xbe249587	-0.16072665
45	0x3e432532	0.19057158
46	0x3d0d2b56	0.034465156
47	0xbe4953c3	-0.19660859
48	0xbe9bba9b	-0.30415806
49	0x3de7fd4d	0.1132761
50	0x3e6838f5	0.22677977
51	0xbdc16ae8	-0.09444219
52	0xbe22b384	-0.15888792
53	0xbf0e3e62	-0.5556394
54	0xbe68c0ec	-0.22729844
55	0x3f5805d1	0.84383875
56	0x3f0ec3aa	0.5576731
57	0x3ede38f9	0.43402842
58	0xbc44411d	-0.011978415
59	0x3f50cc6c	0.81561923
60	0xbdddd583	-0.1083174
61	0x3f325468	0.69660044
62	0x3ed2781a	0.41107255
63	0x3ef907fa	0.48638898
64	0x3e8893d8	0.26675296
65	0xbc1e2919	-0.009653353
66	0x3d5f7529	0.054555092
67	0xbe8f8218	-0.2802894
68	0xbd567d5f	-0.052365657
69	0xbf26f856	-0.6522268
70	0x3f03591c	0.51307845
71	0xbf282dc6	-0.65694845
72	0x3f1cc7e7	0.61242527
73	0xbf58d363	-0.8469755
74	0xbecdfda4	-0.40232575
75	0xbcc3e291	-0.023911746
76	0x3e661d42	0.22472098
77	0x3f3dbc8e	0.74115837
78	0x3f7a8c4a	0.97870314
79	0xbe3ba3cb	-0.18324201
80	0xbdcf29b9	-0.1011538
81	0x3f34110d	0.7033852
82	0xbf04b8b8	-0.5184436
83	0xbea3dd3f	-0.32004735
84	0x3e3e1a92	0.18564823
85	0x3df64948	0.12025696
86	0xbe95c5e2	-0.29252535
87	0xbebcc5a6	-0.36869544
88	0xbdfe3d41	-0.12414027
89	0xbf1e78eb	-0.61903256
90	0x3f09e896	0.5387052
91	0xbfa54f71	-1.2914869
92	0xbee4326e	-0.44569725
93	0x3e2817c9	0.16415323
94	0x3ee2d892	0.44305855
95	0xbf453a6f	-0.7704229
96	0xbe6baf63	-0.23016123
97	0x3ea1b818	0.31585765
98	0xbdcf2bd1	-0.10115779
99	0x3efa0d2b	0.4883817
100	0x3ee2586f	0.44208094
101	0x3ea95565	0.33072963
102	0xbd9dd9b9	-0.07707543
103	0xbe88fbac	-0.2675451
104	0x3e78e553	0.2430623
105	0x3dcf05bd	0.10108516
106	0xbecf8227	-0.40528986
107	0x3e4e41d7	0.20142303
108	0x3ec9ebff	0.39437863
109	0xbf03d464	-0.5149596
110	0x3eff0c1f	0.49813935
111	0xbe537564	-0.2065025
112	0x3e2e9988	0.17050755
113	0x3d7c48aa	0.061592735
114	0x3dd64efd	0.104642846
115	0x3bb6cb3a	0.0055784257
116	0x3e9c6262	0.3054381
117	0xbe341ce7	-0.1758915
118	0xbe6f1c85	-0.23350723
119	0x3f894d4c	1.0726714
120	0x3e1e9300	0.15485764
121	0xbf12fa4c	-0.5741317
122	0xbe8d4973	-0.275951
123	0xbe4f715d	-0.20258088
124	0xbe9b8713	-0.3037649
125	0xbec75d04	-0.38938153
126	0xbe467d00	-0.19383621
127	0x3f09ad16	0.53779733
128	0x3e4b1bc6	0.19834813
129	0x3e41e2c3	0.18934159
130	0x3e749c03	0.23887639
131	0x3e2226d7	0.15835129
132	0x3e92be8a	0.28660995
133	0xbe79da25	-0.24399622
134	0x3e9950f8	0.29944587
135	0xbe160e3c	-0.14653867
136	0xbcabd8da	-0.020977426
137	0x3eb4ee00	0.3533783
138	0xbf32d322	-0.69853413
139	0x3f260e5b	0.64865655
140	0xbcb44d55	-0.022009531
141	0xbf858f2c	-1.0434318
142	0x3e80b735	0.25139776
143	0x3f8d7c07	1.1053475
144	0xbf8fbd06	-1.122956
145	0x3e8210bd	0.25403395
146	0xbe02ad96	-0.1276153
147	0x3d94a691	0.072583325
148	0xbf303160	-0.6882534
149	0x3ef493ba	0.47768956
150	0xbee7c1c2	-0.45265013
151	0x3faee0e0	1.3662376
152	0x3eca2368	0.39480138
153	0xbea85c14	-0.3288275
154	0x3d62a0fc	0.055329308
155	0xbdd863be	-0.10565899
156	0x3e2854c2	0.16438583
157	0x3e63211e	0.22180602
158	0xbebb87e9	-0.3662713
159	0xbf418b71	-0.75603396
160	0x3f0b84ab	0.5449931
161	0x3e31c955	0.17361958
162	0x3c56932d	0.013096613
163	0xbf97c584	-1.1857152
164	0x3daf7851	0.085678704
165	0xbe169710	-0.14706063
166	0x3e224b35	0.15849002
167	0x3ea563da	0.32302743
168	0xbeba53f7	-0.36392185
169	0x3e16347f	0.14668463
170	0x3fa95038	1.3227606
171	0xbedc1343	-0.42983446
172	0xbca33378	-0.019922003
173	0x3ec3710e	0.3817219
174	0x3e08b421	0.13349964
175	0xbe25767e	-0.16158482
176	0xbea0bc9a	-0.31393892
177	0xbf1b96fa	-0.60777247
178	0x3f816a76	1.0110614
179	0x3f4ac963	0.7921354
180	0xbed31136	-0.41224068
181	0xbe913fa1	-0.28368858
182	0x3e711990	0.23544908
183	0xbefe5c4a	-0.49679786
184	0x3e727457	0.23677193
185	0x3dbe144d	0.09281216
186	0xbe8896ac	-0.26677454
187	0x3f1d91a2	0.61550343
188	0xbf256eba	-0.6462208
189	0x3ef855c1	0.48502925
190	0x3c6f3a58	0.014601313
191	0xbeca340e	-0.3949284
192	0x3ec2be54	0.38035834
193	0xbed65a40	-0.4186573
194	0xbdc04721	-0.09388567
195	0x3ec07e2e	0.37596267
196	0x3d4d1619	0.050069902
197	0xbe814744	-0.25249684
198	0xbef2b1dd	-0.47401324
199	0x3f8acfd2	1.0844672
200	0xbddfda6a	-0.10930331
201	0xbf70f1af	-0.9411878
202	0x3d0d7bb9	0.03454182
203	0xbed094c7	-0.40738508
204	0x3ecd170f	0.40056655
205	0x3d86d8f6	0.06584351
206	0xbf845049	-1.0337001
207	0xbec59ff8	-0.3859861
208	0x3f8eca0f	1.1155413
209	0x3e23767a	0.15963164
210	0x3e07ee20	0.13274431
211	0x3e7bbe41	0.24584295
212	0x3f8f7bec	1.1209693
213	0x3ef8e716	0.48613805
214	0x3e914323	0.28371534
215	0x3f91d01d	1.1391636
216	0xbee87f82	-0.4540978
217	0xbdd64ede	-0.104642615
218	0x3db69611	0.08915342
219	0x3ec1c294	0.37843764
220	0x3e3f81bc	0.18701833
221	0xbebea978	-0.3723867
222	0x3dde5380	0.1085577
223	0xbe6d4ddd	-0.23174234
224	0x3cc236aa	0.023707706
225	0x3ea5bb95	0.32369676
226	0xbe094696	-0.13405833
227	0xbe5ab065	-0.21356352
228	0x3e180cd5	0.14848645
229	0xbe101f5a	-0.1407446
230	0xbeda4edb	-0.42638287
231	0xbea2d009	-0.31799343
232	0xbe7ede94	-0.24889594
233	0xbf2d92f9	-0.6780239
234	0x3f3b378a	0.7313162
235	0xbfa3a7b6	-1.2785556
236	0xbec2ded1	-0.3806062
237	0xbe7e3e06	-0.24828348
238	0x3f4a06ae	0.7891644
239	0xbe3f9df6	-0.18712601
240	0xbf0e7fc5	-0.5566371
241	0xbf1040e0	-0.5634899
242	0xbe12911b	-0.14313166
243	0xbf197297	-0.59940475
244	0x3e9ffdc3	0.31248292
245	0x3e3f7eba	0.18700686
246	0xbe8dbdb0	-0.27683783
247	0x3eecffb0	0.46288824
248	0x3e81631f	0.25270936
249	0x3ea98d6b	0.33115706
250	0xbe58a1cc	-0.2115547
251	0x3f19cdab	0.6007945
252	0x3f279ab5	0.6547044
253	0xbdbe15d3	-0.092815064
254	0x3f868319	1.0508758
255	0xbf0a259c	-0.5396364

bias_ih f4 [60]
0	0xbd8f0555	-0.06983439
1	0x3ec4eed9	0.38463476
2	0xbec3800b	-0.38183627
3	0xbeacdbd1	-0.33761457
4	0xbe6b20d5	-0.22961743
5	0x3e1b5e66	0.15172729
6	0x3dccda6d	0.10002599
7	0x3c221418	0.009892486
8	0xbcb64fdd	-0.022254879
9	0xbeb32dea	-0.34995967
10	0x3f23d35a	0.6399437
11	0x3c066732	0.008203315
12	0xbd0253f1	-0.031818334
13	0x3f0715fc	0.5276792
14	0xbeb8ec52	-0.36117798
15	0xbf13467e	-0.5752944
16	0x3d3e120c	0.04640393
17	0x3f3f4e3f	0.7472877
18	0xbe997edf	-0.29979607
19	0xbedd0faf	-0.43176028
20	0xbe4aac3b	-0.19792263
21	0xbc64885e	-0.013948528
22	0xbe3d4dd3	-0.18486719
23	0xbebf361d	-0.37345973
24	0xbed7d3ee	-0.42153877
25	0xbe09693e	-0.13419053
26	0xbe902277	-0.28151295
27	0xbf59ede3	-0.8512861
28	0xbea82f3a	-0.3284853
29	0x3db8f3d8	0.090308845
30	0xbe8b3a65	-0.2719299
31	0x3e29c948	0.16580689
32	0x3dbc8c36	0.092064306
33	0xbf0bac8c	-0.5456016
34	0xbe62a8b0	-0.22134662
35	0xbf5a685e	-0.853155
36	0xbee7c464	-0.45267022
37	0xbefd6106	-0.49488086
38	0xbef2e528	-0.47440457
39	0xbf073d45	-0.52827865
40	0xbe83ce34	-0.25743258
41	0x3ef1ff6d	0.47265187
42	0xbc1aaa8a	-0.009440074
43	0x3dfd5722	0.12370135
44	0xbec0bb5e	-0.3764295
45	0xbda1c23e	-0.07898377
46	0x3d5db915	0.054131586
47	0xbeb6a2e3	-0.35671148
48	0x3e70f3d4	0.23530513
49	0x3d6364f1	0.055516187
50	0x3e406f2b	0.18792407
51	0x3e2f791a	0.1713604
52	0xbcfe8a16	-0.031071704
53	0xbe02df92	-0.12780598
54	0xbb961888	-0.004580561
55	0x3d70defb	0.0588064
56	0xbe344d47	-0.17607604
57	0xbe95fba2	-0.29293543
58	0xbe07f64e	-0.13277552
59	0x3e370d42	0.17876151

bias_hh f4 [60]
0	0xbea46e27	-0.3211529
1	0x3ec7ad2b	0.38999304
2	0xbef1721d	-0.47157374
3	0xbee00b8d	-0.43758813
4	0x3ca01d69	0.019545274
5	0x3c9b67ab	0.018970331
6	0x3e6d1a05	0.23154457
7	0xbab3bf34	-0.0013713599
8	0xbe10f170	-0.14154601
9	0xbeca8fd4	-0.39562857
10	0x3f27fb72	0.6561805
11	0x3ceef78f	0.02917078
12	0xbe12316a	-0.14276662
13	0x3f0eb922	0.5575124
14	0xbec8a05a	-0.3918484
15	0xbe99ff8e	-0.30077785
16	0x3e865e78	0.2624395
17	0x3f2d2f85	0.67650634
18	0xbeea349f	-0.45743272
19	0xbf02e6c5	-0.51133376
20	0xbeb142dd	-0.34621325
21	0x3e634944	0.22195917
22	0xbed8d93d	-0.4235324
23	0xbf34080e	-0.7032479
24	0xbe1eae78	-0.15496242
25	0xbeb2894d	-0.34870377
26	0xbed8d26c	-0.4234804
27	0xbf61eab9	-0.88248783
28	0xbe7c1279	-0.24616422
29	0xbdfb6514	-0.122751385
30	0xbe6bb14b	-0.2301685
31	0x3e28c2f0	0.16480613
32	0xbe9966cc	-0.2996124
33	0xbf5b1f33	-0.8559448
34	0xbebc0c66	-0.3672821
35	0xbf5811de	-0.84402263
36	0xbec8d57e	-0.39225382
37	0xbef38064	-0.47558892
38	0xbeb006b4	-0.34380114
39	0xbe072e50	-0.1320126
40	0xbdb96558	-0.09052533
41	0x3ecb0022	0.3964854
42	0x3d94485c	0.07240364
43	0xbe7cf670	-0.24703383
44	0xbe8b4e73	-0.2720829
45	0x3e253160	0.16132116
46	0x3eaaa4a1	0.33328727
47	0x3ee55e3e	0.44798464
48	0xbdec28b6	-0.115312025
49	0xbd2f24ec	-0.04275982
50	0x3ee705ee	0.45121711
51	0xbe7bff0d	-0.24609013
52	0xbdd24d88	-0.10268694
53	0xbe8cf0ea	-0.27527553
54	0xbcd4f2f2	-0.025994752
55	0x3e58b3da	0.21162358
56	0xbd842048	-0.0645147
57	0xbecbc782	-0.3980065
58	0x3e6176f6	0.22018036
59	0xbeaff4a8	-0.34366345
