P5/h20-bs64-transformer/encoder.pt (torch, 15451 bytes, 5 tensors)

weight f4 [29, 20]
00000000: aca7 9bbc 90ab a43d cf41 083d d16d b83f
00000010: 92e0 a53e 9ba2 ed3e 2032 fd3d 552e 47bf
00000020: bbee 7d3f cf1c b13e f4ff 293f 9847 c3bf
00000030: c686 47be 1a15 953c 51de bc3d 484b 853e
00000040: 75bf 72be 31c0 943c 638b efbe 3dca e0bd
00000050: bcff 10bf eab8 0b3f e893 8c3f 29c6 103d
00000060: 462c b4bf cb41 143f 3ba3 c93e 135f fbbd
00000070: 70a5 bf3e 1b3e 4e3f 77e1 8abf 8185 283e
00000080: c47d 9bbf 525f 38bf b153 14bf 77c3 d13d
00000090: 50b9 b7bf 8303 433e 4b39 edbe b5f1 893e
000000a0: ce5b 63be 5068 b5bf cd1a 633f d016 3c3e
000000b0: 48da c93e 8a8a 933e f691 bdbc c240 82bc
000000c0: 65db 99bf 4bb6 783c 9d1a 203e 39f0 46be
000000d0: 730c 9d3f 6faa 413f 1890 ffbd 5601 2dbf
000000e0: abe4 ddbd dd6c 2e3f 2f75 633f f8bf 683e
000000f0: 6495 8a3e 4d9a 093f 1929 8b3f 4bf9 3b3f
00000100: 3148 ad3e b268 3abf 1688 14bc 2fa5 d63d
00000110: 87ec 913f e671 a2bf 13c2 abbe dbcc 883e
00000120: 3cc2 193f c08c 933f dc96 bc3c 9172 febe
00000130: 00e1 01bf 7ecb 56bf 78bb 263f 1005 793d
00000140: 809e ebbe 7c88 a53e 8abd 113e adbc a3bf
00000150: 9718 9e3e 7636 6a3f 1635 323f ac5a 4d3f
00000160: cacf 3b3f 8f69 5cbf 8103 d6bf 82c8 543f
00000170: 399e e0bd b8e7 22bf 3095 9abf bd8e 663d
00000180: a8b4 003e 7cb9 a2be 110e b63e de1d 523e
00000190: 8868 e63e e8b1 1d3f 70a2 df3e 87e1 293e
000001a0: 483d a9be e84c 0f3f 117a 233f 6345 543f
000001b0: 8eae b63e d8d1 12be 2a57 80be ac3d ef3e
000001c0: cedf 143f bf89 a43e 6f07 e83e c00b a6bd
000001d0: 57ad 37bf bb4a b13f e58b c9be 5a21 8f3f
000001e0: 602a 72bf c765 b43e 2889 4fbf 47fb b63e
000001f0: efdc 23bf 74d0 25bf bb6f d3bd 7fcc efbd
00000200: c305 b2be 30f3 49bf d138 6fbe 1ff6 0ebe
00000210: 917f 863f 62aa 8f3f 2769 a73e 79b2 b0bf
00000220: 89ed 873e de69 5bbe 4292 b13d 1665 8dbf
00000230: 3907 11bf 261a 143f 5602 c0bf ee5f eabf
00000240: a7d3 d3be d94e 873e 4ec5 683f 8abc d7bf
00000250: cbe3 11bf 905a a23e 7b21 a5be 40ef ab3e
00000260: dba4 9f3e 2517 0340 656d cebf 62c1 833f
00000270: 3841 133f b937 833f 4beb 5bbe 6fcb ca3d
00000280: 5161 8dbe 4ef4 a93d 7338 c73f 27e6 e6bf
00000290: 6825 073e 7a09 5abe af92 ec3f 72d3 5b3e
000002a0: b289 f13f 1569 77bf b44e c33e 16e4 d6bd
000002b0: 11ba c1be 51c1 00bf cb5f d73e a93f 1bbd
000002c0: cdf8 063e f700 693f f216 ce3f b841 9f3d
000002d0: 6246 0fbf 581b 253f f631 3cbf c09f cfbe
000002e0: 0a78 55be 1b3f 033f c44d a5be 3c66 3cbf
000002f0: 73ea 1e3f a789 913f 5e8e adbf 0bf7 f63e
00000300: f8bd 2cbf 7934 ae3d 3570 d43f 0883 90bd
00000310: 3b51 34bf be1e 6abe 6bee 8f3e b3e2 3a3f
00000320: 7b79 c0bf 4656 76bf 2f2b 98bf 989c 91bf
00000330: 10bb 093f f7ef 4cbe ca17 9b3f d964 123e
00000340: f55b d33f 09b8 dbbd b771 59bf 96d9 07bf
00000350: f0ee 1d40 1104 e13f ca80 a23f b85b da3f
00000360: af65 4abf a54f 90bf 92f8 843f 9090 21bf
00000370: bc15 00c0 c9ad 3e3e d74c d5bf 861f dd3e
00000380: 5545 8cbe d46c 87bf 7487 1ebf e7c9 943e
00000390: a5e9 8c3f f946 04bf 28e3 6d3d fb5b 8b3f
000003a0: 933c 19bf c094 87be c613 cb3f 620e ffbe
000003b0: 2b83 8bbc 32ad 88bf 0dec 1f3f 6963 c43d
000003c0: 497b 3abf 98fe 033e 7929 3a3f e060 0cc0
000003d0: a04f e13c 73dd 45bd 19d6 2bbf 0594 303f
000003e0: 3946 04bf a085 93be 118a 9b3e 5424 8dbf
000003f0: 89c6 c43e 463f 22be b042 f43e 52d5 8abe
-0.01900085 0.080405354 0.033265885 1.4408513 0.32397896 0.4641312 0.12363076 -0.7780507
0.991924 0.34592292 0.6640618 -1.5256224 -0.19485006 0.018198539 0.09222091 0.26033998
-0.23705848 0.01815805 -0.4678603 -0.10976074 -0.5664022 0.5457903 1.0982637 0.03534523
-1.4076011 0.5791289 0.39382347 -0.12273993 0.37430906 0.80563515 -1.0850056 0.16457178
-1.2147756 -0.7202045 -0.579402 0.1024236 -1.4353428 0.19044308 -0.46332774 0.2694222
-0.2220299 -1.4172459 0.8871277 0.18368077 0.39424348 0.28816634 -0.023140889 -0.01590002
-1.2020079 0.015180181 0.15635152 -0.19427575 1.2269424 0.75650686 -0.124786556 -0.67580163
-0.108346306 0.6813486 0.8885068 0.2272948 0.270671 0.5375107 1.0871917 0.73427266
0.3384414 -0.72816 -0.009065649 0.10480725 1.1400307 -1.2691009 -0.33546504 0.26718792
0.60062003 1.1527328 0.023021154 -0.49696782 -0.5073395 -0.83904254 0.65129805 0.060795844
-0.46019363 0.32330692 0.1423246 -1.2791954 0.30878136 0.9148935 0.6961225 0.8021648
0.73363936 -0.8609857 -1.6719819 0.8311845 -0.109676786 -0.63634825 -1.2076778 0.05628847
0.12568915 -0.31782138 0.35557607 0.20519206 0.45001626 0.6159959 0.43678617 0.16589938
-0.33054566 0.55976725 0.63858134 0.82918376 0.3568005 -0.14337862 -0.250665 0.4672674
0.58154 0.32136342 0.4531817 -0.0810771 -0.7174887 1.3850931 -0.39364544 1.1182053
-0.9459591 0.352339 -0.8106866 0.35738584 -0.6400899 -0.647712 -0.10324045 -0.117089264
-0.3477002 -0.788867 -0.23361517 -0.13961075 1.050768 1.1223872 0.32697412 -1.3804466
0.26548412 -0.21427104 0.086704746 -1.1046474 -0.56651646 0.578524 -1.5000713 -1.8310525
-0.41372415 0.26427343 0.90926063 -1.6854413 -0.5698821 0.3170972 -0.32252106 0.3358097
0.31180462 2.0482876 -1.6127135 1.0293391 0.5752139 1.025138 -0.21476476 0.09902083
-0.2761331 0.082985505 1.5564102 -1.8038987 0.13197863 -0.21292678 1.8482264 0.21467379
1.8870146 -0.9664472 0.38145983 -0.10492723 -0.3783727 -0.5029498 0.42065272 -0.037902508
0.13180847 0.910171 1.6100752 0.07776207 -0.5596677 0.6449485 -0.73513734 -0.40551567
-0.20846573 0.51268166 -0.32285893 -0.735935 0.6207649 1.1370133 -1.3559072 0.48235354
-0.6747737 0.08506102 1.6596743 -0.07056242 -0.7043645 -0.2286329 0.28111586 0.73002166
-1.5037073 -0.9622539 -1.1888179 -1.1375914 0.5380106 -0.20013414 1.2116635 0.14296283
1.6512438 -0.10728461 -0.8493914 -0.53066385 2.4677086 1.7579366 1.2695553 1.705924
-0.79061407 -1.1274306 1.0388358 -0.6311121 -2.0013266 0.18620981 -1.6664075 0.43188113
-0.27396646 -1.0580087 -0.61925435 0.2906029 1.1008803 -0.51670796 0.05807796 1.0887445
-0.59858054 -0.26480675 1.5865409 -0.4981566 -0.01703032 -1.0677855 0.6246956 0.095892735
-0.7284437 0.12890089 0.7271953 -2.1934128 0.027503788 -0.048306894 -0.6712356 0.6897586
-0.5166965 -0.28812885 0.30378774 -1.1026711 0.3843272 -0.1584445 0.4770713 -0.27115875

weight_ih f4 [60, 20]
00000000: f5fd 4ebe 2915 ce3e f13d b23b 1f34 f4bd
00000010: c968 23be b6fe 42be 5a8f 2b3e 55c4 d43d
00000020: c0d3 9ebe 3b40 df3d 1829 c5bd 1a3d 393e
00000030: c8e0 343d 5b2a 0d3b fdcf 953e 7108 d4bd
00000040: 8d86 d0be 8997 b63d b16a 303d 4056 853e
00000050: baf2 aa3d 5bff d73d 227c cabe 7862 a83c
00000060: 398a 3e3e 3487 9fbc 2ff0 ac3d 25a8 c73d
00000070: e59a 49bd f109 00bf ab28 d2bd 8749 453e
00000080: 0afa 323d 7c5d b63d 4cc0 5bbe 48df b33c
00000090: 948d c73e 9dad 5cbe 644d 003e f7df 5e3e
000000a0: 20c7 4abe 5508 b63e f4f0 a73d 0454 b0bd
000000b0: eae8 0f3e 08d8 3abe 07c8 f5bd aedb febd
000000c0: 087d 5e3d d8cf a6be f1c9 623d 740c 61be
000000d0: a4a6 d43e 2d83 913e e05c ddbe 70da af3e
000000e0: 12ca 5e3e 8be4 efbe 526d c33d 52f3 f7be
000000f0: 9fac 15be fbe5 c93e c092 9bbd 6e6a 213d
00000100: 2d5e 113d 6328 623f 33ba b83e 5c77 49be
00000110: b5f5 95be 5a99 c0bd 6e76 cebe dd4f 553f
00000120: a0f5 953e 23e3 09bd 4c80 103f f2b8 37bd
00000130: e102 f1be 89d9 713e e367 debb f39c 503e
00000140: 246b 2e3f 5cc7 28bf bdfb 14be 733e 29bf
00000150: e3d9 a7bd 8d88 cdbd c4b8 c4be b037 9a3e
00000160: 6488 f6be c9d0 093f a6e1 03be 61f0 a5be
00000170: 4b7c 85be fea9 8f3e 0f34 27bf 6818 84bd
00000180: c8f1 cd3e a43a dfbe 6c0d 863b a6b2 f63d
00000190: 49bf cfbe 27c9 bd3e d26e 52be 1f6b 803c
000001a0: a64c 9f3e 6e39 b3be aa38 3fbe 1720 cb3e
000001b0: 31f0 3cbe 0095 fdbe 08cb d83d 9f33 213f
000001c0: ac6f 593e cab7 c93d a604 e13e 99cc e9be
000001d0: 4d1e 0c3f 5dd7 cabe 51a4 89bd 4da0 1d3d
000001e0: 9eae 3b3c edff 0c3e 3de3 3dbe acc9 82be
000001f0: fd88 ce3e 5434 d8be f327 89bd ea59 a93e
00000200: f1a0 063d 19af a6be 8c47 383e 9107 5f3e
00000210: a498 a73d 00c7 12bf c16e 96be 540e 31be
00000220: 6f3e 183d 1616 d8bd 769d 863d 7c0c 0fbf
00000230: ad14 e43d 0970 e4bd c98b dcbe 6631 68be
00000240: c516 c03e d259 ad3c 6471 44be 91bb cb3d
00000250: 1b3b a83e b93a 003e f58d a03e f048 b4be
00000260: 9475 9c3d ddc4 b43e ceaa 7b3e e57a bbbd
00000270: 8a11 113e 83bb e53e 6b8e 7bbc 5a3b 9f3e
00000280: 2232 9bbd 9434 69be b08c 923e c63d 973d
00000290: 848f 3bbe e22b e5be 5239 91be dbe7 473d
000002a0: f331 9cbe 8bb8 213e 0e7d a6bd dcb0 f2bd
000002b0: 4c7d 9b3d bc0e f03d 1ade d93b 6cf8 17bf
000002c0: f187 b23e 7faa a7be 7eb9 873e 79fe c3be
000002d0: 37b9 6dbe 232e 143e 7086 933d 22cc a9bd
000002e0: 9f5e 8dbe bfad cc3e 9799 b93e b694 2d3e
000002f0: 213d b93d 137e ed3e 80c0 30be b2ac fe3c
00000300: 6ad8 11bd c4e1 b03d 06a7 3f3e 73f4 d73d
00000310: 16ed bbbe 2d78 2b3f b5c1 843d 8c61 743d
00000320: c791 8ebe 5370 cc3e ea84 20be 92c1 bdbe
00000330: 4fc2 7f3d 371e 23be 20f1 ea3d 1832 dcbd
00000340: af71 a2be adc9 dbbe 66d8 5f3d 0d0e 253e
00000350: 37a6 a3be f39e 95be d231 20be 7b74 033e
00000360: 810a 803e fe34 0bbf 9646 a33e 118d 9fbe
00000370: ac39 b1bd bdb4 f8bd 0aaf f7bd d1b2 a1bc
00000380: c1cc c1bd 7bc7 353e bbcd 483e fe34 0f3e
00000390: a053 68be 5bac 48bd dd59 04be 0850 4d3e
000003a0: 91c6 c0be a70f 98bd f937 1bbe 1681 333e
000003b0: 7161 07be a7d8 19bd 2a60 c63c 7e68 9c3e
000003c0: 6784 abbe c6d0 773e bac8 a4be af7f 063e
000003d0: 12a7 0cbf 6aaa 5e3e 601e a1be 1b88 193e
000003e0: 54ac e9bc 8c96 863e b395 e23b aafa 003f
000003f0: 3531 5c3e c5ad 37be 19cf f23d a272 213c
-0.20214064 0.4025052 0.005439513 -0.11924004 -0.15957941 -0.19042477 0.16753903 0.1038901
-0.31020927 0.10900923 -0.09626979 0.18089715 0.04415968 0.0021540138 0.29260245 -0.103531726
-0.40727654 0.08915622 0.0430705 0.26042366 0.08347078 0.10546752 -0.3954783 0.020554766
0.18607415 -0.01947365 0.08444249 0.09748868 -0.049219985 -0.5001517 -0.10261663 0.1926633
0.043695487 0.089045495 -0.21460074 0.021957055 0.38975203 -0.21550603 0.12529522 0.21765123
-0.19802523 0.35553232 0.08200255 -0.08609775 0.14053693 -0.18246472 -0.12001043 -0.12444244
0.054318458 -0.32580447 0.055368368 -0.21977407 0.41533387 0.28420392 -0.4323492 0.34346342
0.21756771 -0.46854052 0.095423356 -0.48427826 -0.14616631 0.39433274 -0.0759635 0.03940814
0.035490204 0.88342875 0.3607956 -0.19674438 -0.29289022 -0.094042495 -0.4032473 0.83324987
0.2928896 -0.03366388 0.56445765 -0.044854112 -0.4707251 0.2361814 -0.0067872866 0.20372371
0.68132234 -0.659292 -0.14549156 -0.66110915 -0.081958555 -0.100358106 -0.38422215 0.3012061
-0.48150933 0.53834206 -0.12879047 -0.32409957 -0.2607139 0.2805938 -0.6531381 -0.064499676
0.40223527 -0.43599427 0.0040909555 0.12045793 -0.40575626 0.3706753 -0.20550087 0.01567608
0.31113166 -0.35004753 -0.1867396 0.3967292 -0.18451001 -0.4952774 0.105856 0.6296939
0.21234006 0.09849508 0.4394886 -0.45663908 0.54733735 -0.39617434 -0.06720794 0.038482953
0.011455206 0.13769503 -0.18543716 -0.25544488 0.4033889 -0.42227423 -0.06697073 0.3307641
0.03286833 -0.32555464 0.17996043 0.2178023 0.08183411 -0.573349 -0.29381374 -0.17290622
0.037168916 -0.105510876 0.06573002 -0.55878425 0.11136756 -0.111541815 -0.43075398 -0.22675094
0.37517372 0.021160994 -0.1918388 0.09947885 0.32857594 0.12522401 0.31358305 -0.35211897
0.07639614 0.35306445 0.24576876 -0.091543 0.14166847 0.44869623 -0.015353779 0.3109997
-0.075779215 -0.22773963 0.2862296 0.07384829 -0.18316466 -0.44760042 -0.28364044 0.0488051
-0.30506858 0.15793054 -0.08129321 -0.118501395 0.07592258 0.1172156 0.006648791 -0.59363437
0.3486934 -0.32747266 0.26508707 -0.38280085 -0.23215185 0.14470725 0.07203376 -0.08290888
-0.27611253 0.39976308 0.36249992 0.1695126 0.090448625 0.4638525 -0.17260933 0.031088207
-0.03560678 0.086368114 0.18716058 0.10544672 -0.3670432 0.6698025 0.06482259 0.05966334
-0.27845594 0.39929447 -0.15675703 -0.37061745 0.062441166 -0.15929495 0.11471772 -0.10751742
-0.3172736 -0.42927304 0.054649733 0.16118641 -0.3196275 -0.2922283 -0.15644005 0.12837403
0.25008014 -0.54377735 0.3188979 -0.31162313 -0.08653578 -0.12143848 -0.12093933 -0.019738587
-0.09462882 0.17751877 0.1960973 0.13985059 -0.2268815 -0.048992496 -0.12924905 0.20050061
-0.37651494 -0.074248604 -0.1515807 0.17529711 -0.13220765 -0.03756013 0.024215776 0.3054847
-0.33499452 0.24200734 -0.32184392 0.13134645 -0.5494243 0.21744695 -0.31468487 0.14993326
-0.028524555 0.26286733 0.006914818 0.50382483 0.21503146 -0.17937382 0.11855907 0.009853991

weight_hh f4 [60, 20]
00000000: 1b80 87ba 6595 4fbd 2a62 273e d9d9 053f
00000010: ed80 533f 0231 383f d1c0 c7be 5932 2fbf
00000020: 2251 ccbd 455e dcbe 511e 7d3e 275d ca3e
00000030: f262 8c3f a324 79bf cab6 14bf 0eb3 c7be
00000040: b95a 33bf e432 0ebe abe0 8d3e 09b8 76be
00000050: fb06 5c3f 5fec 423f 5f28 81be b56a 8fbc
00000060: 6533 7d3e 3f83 87bd f267 d0be 087a 9a3f
00000070: 5a0b 0f3f e330 febd ca30 8f3e f512 4c3d
00000080: f8b4 45be e4f9 89be f40f 1b3f 9766 1f3f
00000090: 872d 0e3f 648b 35bf 485a 85bf ff4d cdbd
000000a0: 1f09 92bf 88aa a13b 79f7 9ebf 984f 91bf
000000b0: ece9 393f 6e57 f2be fbfa 353f 2023 61be
000000c0: 2e41 5b3f 81ea 2e3e df69 06bf 191e 4abe
000000d0: 262f e3bd 49e6 213f aa43 f7bd 5db1 273f
000000e0: f354 d9bd a663 39be 9606 68bf bf0e db3e
000000f0: c4f2 8fbe de40 0e3f bce9 0f3e 779b 42bf
00000100: 4b70 a43d 08dc fc3e 55f5 d8bd 0a9d afbe
00000110: b737 ba3d 74e1 babe f9ec 4b3d 5354 adbd
00000120: 3305 f6be 846a 0cbf d832 96be 6eba ce3d
00000130: b1e1 38be b29e 97be 9b08 edbd 77a9 d4be
00000140: 1f98 68be a824 d9be 50f4 f33d dc51 453f
00000150: 879b b23e 013a 5d3d 191d 5dbe 8530 e83e
00000160: 983c 2a3e a648 38bf 3e5d 9bbe ea9f a63e
00000170: 3277 e33e f685 063f 566f b0be 1b4b bcbe
00000180: 2424 49bf cdc9 03bf 2557 63be bb88 3c3c
00000190: a391 9f3f 54c4 43bf 95ba f6be cb02 953d
000001a0: 2612 fc3e 8a03 ed3d 24f8 0bbe b925 40bf
000001b0: 450a abbe 9c2f 9d3e 603e c63b ff0d 43be
000001c0: 34b1 eebe b420 5bbf 4dd1 28be c772 253f
000001d0: 1fa0 9bbe 1f31 0abf 1002 983e bb60 2dbf
000001e0: 568d f3be fafe 8a3e a787 8bbe 48df a23e
000001f0: 210f 163f 771b 11bf 9fcf 5e3e 6776 0e3f
00000200: 8df5 13bd a575 d53d 7a4a 67bd 0971 eb3e
00000210: 2881 babe 4b67 7dbe a75a 6c3f 8ba8 c93d
00000220: 2d82 93bc acbb 8fbf 3e24 6fbf 3eb2 60be
00000230: 8612 263f c454 c7bb 0c1e ef3e bbc9 a2be
00000240: 2e26 21be b73c 063e 84ba 4ebf 00bf 963c
00000250: 20a8 3bbf 92b0 91be 2055 66be c7cd b3bd
00000260: c40c c8be 83e7 033f e32f 36be a289 ab3e
00000270: 8875 8e3f a75a 3c3f b50e 5c3f cc80 d23e
00000280: 1145 eabe ac38 04bf 59e8 41be c4d3 a4bf
00000290: 5f11 b43e 2738 c33e d477 5a3d 8140 613e
000002a0: 2783 763f 9c97 2bbf 483e 343d 028e 0bbf
000002b0: 9b9b e1be 0db8 abbe 510c d63d d263 263f
000002c0: 01a6 21bf 190d f8bd 82a9 0dbb 7533 f7be
000002d0: 58f1 0cbf 54c0 26bf 55e6 02bf 31eb 833f
000002e0: 7db5 d4be 2050 03bd be10 1c3e 676b 9dbe
000002f0: c0f6 e7be e582 de3d df17 d73e 9fcc 793f
00000300: 9b21 f1be a3c9 6b3e c99c 343f 5a55 08bf
00000310: 732b a73e 3c16 f5be ee34 3c3e 7dac 07bd
00000320: 3e80 f33e 1f84 103f ed7e 0a3e 035e a0be
00000330: ecc2 babd e116 e3bd d385 8e3d 5170 59be
00000340: e5cd b7bd 778a 1abe 8eae 7cbe 74a5 d73d
00000350: cedd 033f 2796 853e e5e2 a8bd c4cb 49bf
00000360: e293 2c3e 0eba 1b3f 1d7b d03e 6b7b 64bd
00000370: a833 1a3e 5f78 883e 0a1f 6abe 9928 3cbf
00000380: 7512 c93d edfc c43e 1206 01be 96ee ab3e
00000390: 7e62 6a3f bf41 0cbe 05a4 e63c b79e 6bbf
000003a0: e3b1 923c 40d7 cfbd 292b 573d af46 22bf
000003b0: f804 133f 72dc 0fbf a4d0 d7be be35 df3b
000003c0: efc7 e33e aaae 9ebe 917c 0fbe 5615 5bbe
000003d0: ef54 7d3f 9775 e23d 2247 b9be 63aa 103d
000003e0: 78f8 11bf 611e d43e 2257 0abf 8436 c4be
000003f0: 14a4 75bf d652 c8be 41e9 3b3e 7109 053f
-0.0010337861 -0.050679583 0.1634604 0.52285534 0.826186 0.7194978 -0.39014295 -0.684362
-0.09976412 -0.43040672 0.24718596 0.39524195 1.0967696 -0.9732153 -0.58091414 -0.39003795
-0.70060307 -0.138866 0.2771047 -0.24093641 0.8594815 0.76141924 -0.25226113 -0.017506937
0.24726637 -0.0661683 -0.40704304 1.2068491 0.55876696 -0.12411668 0.2796691 0.049822766
-0.19307315 -0.26948464 0.6057122 0.62265915 0.5553822 -0.7091582 -1.0418177 -0.10024642
-1.1409034 0.004933659 -1.2419273 -1.1352415 0.7262256 -0.4733233 0.7108609 -0.21986055
0.8564633 0.17081644 -0.52505296 -0.19738044 -0.11092977 0.6324201 -0.12073453 0.6550501
-0.10611906 -0.18104419 -0.9063505 0.42784688 -0.28114903 0.5556773 0.14054006 -0.7601847
0.08029231 0.4938662 -0.10593668 -0.342995 0.09092658 -0.36500132 0.04978654 -0.08463349
-0.48050842 -0.5485003 -0.29335666 0.100941524 -0.18054844 -0.29613262 -0.11573907 -0.4153554
-0.2271428 -0.4241078 0.11911833 0.7707803 0.34884283 0.054010395 -0.21593131 0.45349517
0.16624677 -0.7198585 -0.30344576 0.3254388 0.44426876 0.5254816 -0.34459943 -0.3677605
-0.7857077 -0.514798 -0.22201212 0.011507208 1.246632 -0.7647145 -0.48189226 0.07275923
0.49232596 0.11572941 -0.13668877 -0.7505756 -0.33406273 0.30700386 0.006049916 -0.19048308
-0.4661957 -0.85596776 -0.16486092 0.6462826 -0.303956 -0.539812 0.29689074 -0.67725724
-0.47568768 0.27147657 -0.27251932 0.31810975 0.58616835 -0.56682533 0.21758889 0.5564942
-0.036122847 0.104228295 -0.05646751 0.45984676 -0.36426663 -0.24746434 0.92325824 0.098466
-0.018006409 -1.1229148 -0.93414676 -0.21942994 0.64872015 -0.006083103 0.4670261 -0.31794533
-0.1573722 0.13109098 -0.8075335 0.018401623 -0.73303413 -0.28455025 -0.2249341 -0.08779483
-0.3907224 0.51525134 -0.17791705 0.33503443 1.1129618 0.73575824 0.8595994 0.4111389
-0.45755818 -0.51648974 -0.1893629 -1.2877126 0.35169503 0.38128778 0.053336933 0.21997263
0.9629387 -0.6702821 0.04400471 -0.5451356 -0.4406403 -0.33538857 0.10451568 0.64996064
-0.63143927 -0.12111873 -0.0021615927 -0.48281446 -0.5505576 -0.6513722 -0.5113271 1.030615
-0.41544715 -0.032058835 0.15240762 -0.30746004 -0.45305443 0.1086481 0.420104 0.9757785
-0.4709595 0.23026137 0.70551735 -0.53255236 0.32650337 -0.47868526 0.18379566 -0.033123482
0.4755878 0.564516 0.13524981 -0.31321725 -0.0911921 -0.11088348 0.06959119 -0.21234252
-0.08974818 -0.15091883 -0.24675962 0.105296046 0.5151032 0.2609112 -0.08246402 -0.78826547
0.16853288 0.6083077 0.40718928 -0.055781763 0.15058768 0.26654336 -0.22863403 -0.7349945
0.098179735 0.38474217 -0.12599972 0.33580464 0.9155654 -0.13696955 0.028154382 -0.92039055
0.017907089 -0.101484776 0.052531395 -0.63389105 0.57429457 -0.5619575 -0.42151368 0.0068118265
0.44488475 -0.30992633 -0.14012362 -0.21394858 0.98957723 0.11057585 -0.36187083 0.035318743
-0.5701976 0.41429427 -0.54039204 -0.38322842 -0.9595349 -0.391257 0.18350698 0.5196753

bias_ih f4 [60]
00000000: 7d87 163f 1cef 3a3f 3757 053f 0c2d 343d
00000010: 4ea8 243d 0e99 68bd 6d3e 2d3f 212a 2dbe
00000020: 2c85 f6bc 5f0b 323f 5870 ba3d 011f 493f
00000030: 0d81 ef3e c0d4 f3be fa0b bb3e 41e9 d8be
00000040: 86da 36be d79e 34be 671d 9ebe c138 9ebe
00000050: bb06 d3be f683 83be ac84 c73e 7051 2abf
00000060: 2c2f 73be 9530 1cbe c549 5dbf c2a0 a8be
00000070: 0614 f9be 7956 34bf fe48 c7be b136 7dbf
00000080: d6c5 79bd a9e6 bdbe c094 da3c 61e4 8ebf
00000090: 2689 b2be 291e be3e a349 143e d0f1 31be
000000a0: 2f3d 4a3e c985 ad3b d066 28be 02ab cabd
000000b0: fcbf 793c a969 97be dcae 36be 6f43 1cbd
000000c0: b15d 4bbe 008d 2e3c 9999 4fbd 8620 69be
000000d0: f374 763e e6bb fcbd 5095 12bb f6e5 793e
000000e0: 1f2a 45be 0181 49be 698e 613d b6b8 56be
0.5880049 0.730211 0.52086204 0.043988273 0.04019957 -0.05678659 0.6767338 -0.16910602
-0.030092798 0.695486 0.09103459 0.78562933 0.46778145 -0.47623253 0.36532575 -0.4236546
-0.17856798 -0.17638718 -0.30881807 -0.30902675 -0.41216072 -0.25686616 0.38968408 -0.66530514
-0.23748463 -0.15252908 -0.8644069 -0.32935148 -0.4864809 -0.70444447 -0.38922876 -0.9891158
-0.060979687 -0.37090042 0.026682258 -1.1163446 -0.3487026 0.37132385 0.14481215 -0.173774
0.19749902 0.0052954894 -0.1644547 -0.098958984 0.015243527 -0.295728 -0.17840141 -0.038150247
-0.19859959 0.010653734 -0.05068359 -0.22766313 0.2406805 -0.12340526 -0.002236683 0.2440413
-0.19254349 -0.19678117 0.055067454 -0.20968899

bias_hh f4 [60]
00000000: c5ac 1b3f ac31 113f 4006 263f eccd 053e
00000010: ff09 a2bd af0e 823e 9fe7 4c3f 3bea 3dba
00000020: 24ea 7e3e f3c4 e33e 8c50 68be 05ac 2b3f
00000030: ffc1 203f 58a4 a8be 4882 513e a157 29bf
00000040: 286f 2cbe f623 bbbe 38b1 1fbe cbc4 9cbe
00000050: b9ea d9be 8a92 79be b0dd 0d3f 2a24 3abf
00000060: cc61 a0be 0515 44be 60b3 8dbf a072 1b3d
00000070: e205 36bf 25af 69bf f922 e1bd 01d3 8bbf
00000080: a47a 61bc 9f7f c1be 6fb1 81bd bbc8 92bf
00000090: f663 e1be ae65 603e 83dd 3fbe ebab babd
000000a0: 4cdd 203e 00c1 d53d 3e86 293e b0e7 66be
000000b0: 680a 80be aeb2 71be cb32 babe 66c0 d73b
000000c0: 602f b6be 0a41 2b3e 0493 b73d acfb 92bd
000000d0: f4f1 ba3d 909b 09be 51ac 4abe 8218 edbd
000000e0: 0d77 f53d 10f4 d83c fba0 e13d 2e18 0a3d
0.608105 0.5671642 0.64853287 0.13066834 -0.07912063 0.25401828 0.80040926 -0.0007244681
0.24894005 0.44486198 -0.22686976 0.67059356 0.62796015 -0.32937884 0.20459855 -0.66149336
-0.16839278 -0.36550874 -0.15594947 -0.3061889 -0.42561892 -0.24372306 0.55416393 -0.7271143
-0.31324613 -0.19148643 -1.1070366 0.03795111 -0.71102726 -0.91282874 -0.10992999 -1.0923768
-0.01376215 -0.3779268 -0.06332671 -1.1467508 -0.44021577 0.21913788 -0.18736844 -0.09114822
0.15709418 0.104372025 0.16555116 -0.2254932 -0.2500794 -0.23603317 -0.36366877 0.006584215
-0.3558302 0.16724029 0.08963588 -0.07176909 0.0912818 -0.13438249 -0.19792296 -0.1157694
0.11985598 0.026483566 0.11017033 0.033714466
